exercise5/racetrack_hparam_latest.pt (torch, 873159 bytes, 56 tensors)

weight f4 [65, 288]
000000 40 5e 44 bb f5 97 56 bd 6f 6c e4 bc e2 23 9b 3c
       -0.0029963404 -0.05239101 -0.027883736 0.018938009
000010 86 4d 25 bc a5 33 8c bd 40 b6 0b bd 2e 3f ba bc
       -0.010089284 -0.06845788 -0.034109354 -0.022735205
000020 67 8c 7a bd b9 d5 83 bc 44 ca cb bc 99 f0 2e bd
       -0.061169054 -0.016093122 -0.024876721 -0.04270992
000030 6c c9 1f bd 86 cb 06 3d 7f 1e 43 3d c0 db f8 ba
       -0.03901045 0.03290894 0.047636505 -0.0018986389
000040 03 8e 23 3d 86 33 e4 3c 78 d1 6c 3d 05 ea 19 3c
       0.039930355 0.0278566 0.057816952 0.0093941735
000050 82 07 f4 3c a3 55 05 bd 1b a9 22 bd 56 c4 2c 3d
       0.029788736 -0.032552373 -0.039712053 0.042179428
000060 6c 38 51 bc c0 a1 16 bd 6f 92 f5 bc 00 1f 30 39
       -0.0127698 -0.03677535 -0.029977052 0.00016796216
000070 6f 26 68 bd 74 58 49 bd af 61 51 bd 45 36 08 bc
       -0.056677278 -0.04915662 -0.05111855 -0.00831372
000080 6d 1f 8a 3c 2d ed f9 bb 24 40 07 3c 28 d0 ec 3b
       0.016860688 -0.0076271505 0.008255038 0.0072269626
000090 9e 75 99 bc 39 03 9f bc 9e 12 86 3c b0 08 06 3c
       -0.018732842 -0.019410716 0.0163663 0.008180782
0000a0 20 50 0f bc da 9b 9b 3c 28 7f 4b 3d 64 7d 03 3c
       -0.008747131 0.018995214 0.049681813 0.008025501
0000b0 eb ba 65 bd 93 53 5e bc ce 2a fa 3b 00 4f 5b bb
       -0.056086462 -0.01356973 0.0076344972 -0.0033463836
0000c0 6d 79 15 3d 0a 66 63 bd 82 d1 03 bd 93 1b 7b 3d
       0.036492754 -0.055517234 -0.032182224 0.061305594
0000d0 e6 09 df bc 12 d8 4f bd 0d 4d 3c 3d d8 6d 27 bc
       -0.0272264 -0.05074317 0.04597192 -0.01021906
0000e0 1e eb 9e 3c d4 83 b9 bc 87 e6 ed b9 72 96 b2 3b
       0.019399222 -0.022645868 -0.0004537592 0.0054500634
0000f0 ac b5 2b bc 52 bf b2 3c db 8e 07 bd a8 4a 00 bd
       -0.010480326 0.021819744 -0.033095222 -0.031321198
000100 74 14 3f 3c b0 6e 45 3b ad 68 6d 3d 4b 61 a9 bc
       0.011662591 0.003012579 0.057961155 -0.020676276
000110 4a 06 25 3d f0 67 ff 3c 67 18 0b 3d f2 bf 34 3c
       0.0402892 0.031177491 0.03395882 0.011032091
000120 12 51 c4 bc 5a b7 c6 3c ae ea 51 bd 42 56 48 3d
       -0.023964439 0.02425735 -0.0512492 0.048910387
000130 55 09 3f bd 38 41 c4 bc bc 02 89 3b b3 79 f5 bc
       -0.04663976 -0.02395688 0.004181234 -0.029965257
000140 6a 98 10 3d 9a 2b 70 bd 67 e7 c9 3c 21 b6 32 3d
       0.035301603 -0.05863533 0.024646474 0.043630723
000150 f0 59 c3 bc 8d d1 2f bc 1b 8c b5 3b e6 62 9d 3c
       -0.023846596 -0.010731113 0.0055403835 0.019212198
000160 fe 40 c0 bc 2e 77 0f 3d 68 86 09 3d cb dc d7 3c
       -0.02346849 0.035025768 0.033575445 0.0263504
000170 e8 51 6d bd df 0b 54 3d 69 8b 26 3d 98 25 3e 3d
       -0.05793944 0.051769134 0.040660296 0.04642257
000180 d6 37 2f bd 3a e6 fc 3c 15 43 9f bb 9b 0d 5d bd
       -0.04277786 0.0308715 -0.0048602917 -0.053968053
000190 64 72 d0 bc 18 8d 96 bb 3e 2f 5e bd e8 32 a5 ba
       -0.02544517 -0.0045944564 -0.054244272 -0.0012603672
0001a0 b0 47 5d bc ec 1b 2d 3d 4d c6 32 bd 7d f8 0a bd
       -0.013505861 0.042262957 -0.043646146 -0.033928383
0001b0 c2 3a 86 3c 4c 95 47 bc ec 4b 41 3c 23 94 55 3d
       0.01638544 -0.012181591 0.011797886 0.052143227
0001c0 19 dc c3 3c 34 37 3f bc 7c c4 c7 bc af b4 5e 3d
       0.023908662 -0.011670876 -0.024385683 0.054371532
0001d0 ba 80 20 bd b6 a2 62 3c cd 59 3c 3d 35 97 76 bc
       -0.039185263 0.013832739 0.04598408 -0.015050699
0001e0 80 9c 3a ba 79 51 b3 39 16 f0 5b bd fc a6 f6 3c
       -0.0007118657 0.00034202242 -0.05369576 0.030108921
0001f0 c0 ba 80 bc a0 9d d8 bb f2 d8 11 3d d4 7e b3 bc
       -0.01571405 -0.0066105872 0.035607286 -0.021911062
000200 a9 d1 63 ba 27 31 62 bd 29 9e c3 3c 4c 9c a9 bc
       -0.00086906046 -0.055222657 0.023879128 -0.020704411
000210 fd a2 60 bd 10 d9 3d bc cb 59 36 3c 9b 17 1b bc
       -0.054842938 -0.011587396 0.011129807 -0.009466077
000220 8e 36 cb 3c 07 71 f6 3c eb 6a 4f bd 5e 99 70 bd
       0.024806287 0.030083193 -0.050639074 -0.058740012
000230 d7 1c 0a 3d d5 36 04 3c 6a d6 08 3d 56 3e 1c bd
       0.03371891 0.008069714 0.033407606 -0.038145386
000240 ef 5d 9d 3c 87 25 ab 3d 5b 2d 2d 3d 7b 9b 87 bc
       0.01920983 0.08356767 0.042279582 -0.016553631
000250 1a 0b 3d 3d cc 97 14 bd 54 91 57 bd 98 77 2d bd
       0.046153165 -0.036277577 -0.05262883 -0.04235038
000260 60 e0 20 3c d8 cf b1 37 9a ec a9 bd fc 66 58 3d
       0.00981912 2.1196829e-05 -0.08297081 0.05283259
000270 39 58 a6 3c de 44 b7 3c 6c 70 6f 3c 0b 56 9f bd
       0.02030574 0.022371706 0.014614206 -0.07780083
000280 1f ec 08 bd 88 d0 50 bd dc e6 d1 bd f4 61 8a bd
       -0.033428308 -0.05098012 -0.10249111 -0.06756964
000290 dd a8 d2 bc e9 71 55 3d 4c 27 f2 3c a3 e6 af bc
       -0.025715286 0.052110586 0.029559754 -0.02147228
0002a0 a3 73 07 3d 92 c1 38 3d 8a 97 ce 3d 08 b2 5f 3d
       0.033069264 0.045106478 0.100874975 0.054613143
0002b0 59 6a e8 3c 12 32 84 3d 91 4d 8c bd 66 f0 15 3d
       0.028371023 0.06454863 -0.06850732 0.036606215
0002c0 ed 03 89 bd 72 85 49 bc 7b db 83 3d e5 dc ca bc
       -0.06690202 -0.012299882 0.06438347 -0.024763534
0002d0 3a 02 6d 3d 7c 53 57 bd 3f ea 82 bc 89 05 52 bd
       0.05786345 -0.05256985 -0.015980838 -0.05127481
0002e0 5c 02 84 3d be 60 36 3d cb cd 93 bd e0 01 c5 3d
       0.064457625 0.044525854 -0.07216986 0.09619498
0002f0 f0 c6 5c bc db a7 29 bd 25 97 3a 3d 27 04 9b 3d
       -0.013475165 -0.041419845 0.0455543 0.07569151
000300 17 55 8f bd 33 ae 82 3c d1 e9 dd 3c 74 56 b0 3d
       -0.069986515 0.015952205 0.027089031 0.086102396
000310 df 0f f0 3c 7b 54 a8 3b 62 1f 13 bd 0e cc cb bc
       0.029304443 0.005137024 -0.0359186 -0.024877574
000320 cb 77 ed bd ee 7f e1 bc 81 88 9f bd ca 79 6a 3c
       -0.11595114 -0.027526822 -0.07789708 0.014311263
000330 95 05 75 3a 36 9f f8 bd 58 5a 89 bc 20 9b 26 bc
       0.000934684 -0.12139742 -0.016766712 -0.010168821
000340 e2 e7 dd bc 98 ad 4f bd ec a5 fb bd a2 57 87 bc
       -0.02708811 -0.05070266 -0.122875065 -0.016521279
000350 79 2d c5 3b b4 8d 03 3b 08 95 44 bd f1 a1 01 bd
       0.0060173837 0.0020073475 -0.04799369 -0.03164858
000360 08 12 9b 3b 06 0e 38 3b 11 28 8a bd 74 dc b8 bd
       0.004732374 0.002808453 -0.06745923 -0.09026423
000370 14 65 27 3d be ff 3e bd 50 66 4d bc 40 7e e9 3c
       0.04086788 -0.046630614 -0.0125366 0.028502584
000380 c9 9b 6c bd 9b 7e b3 3d f8 fd ea 3c 07 39 6f bd
       -0.057765756 0.087643825 0.028685555 -0.058403995
000390 e4 be 81 3d 8f 1e 51 3d f5 38 8c 3a 82 2e 9b 3c
       0.063352376 0.051054534 0.0010698127 0.018943075
0003a0 69 0c c1 3c 9a d0 04 bd bc 50 8c 3d a7 16 9a bc
       0.023565488 -0.0324255 0.06851336 -0.01880963
0003b0 54 6c 41 3d f6 bb 23 3d 9e df b9 3d 7d cd 17 bc
       0.04722245 0.039974175 0.09075855 -0.009265301
0003c0 5d 6c d6 bd c5 ad 17 3c 26 1a 98 bd 94 fa c1 3d
       -0.104698874 0.0092577385 -0.074268624 0.09471622
0003d0 e9 63 5b bd d9 d5 37 bd e1 8b 23 bd f1 6f 5b bd
       -0.05356208 -0.044881675 -0.03992832 -0.053573553
0003e0 dc b1 63 3c 40 8c 1c ba 7c c3 60 3c 23 c0 3a 3c
       0.013897385 -0.00059718266 0.013718482 0.011398348
0003f0 48 91 4d bc c9 ed 42 bd cd 02 3c 3d ce 4a f6 bc
       -0.012546845 -0.04759005 0.04590111 -0.030064967

bias f4 [65]
000000 6d 77 e2 3c 4f 9a 8a 3d d7 dd 1b 3e 0e 76 64 bc
       0.027644837 0.06767713 0.15221344 -0.013944162
000010 f7 9e e4 3c 49 2d ee 3d 16 cb 50 b9 7d 8c 82 bd
       0.027907832 0.11629731 -0.00019912081 -0.06374452
000020 e2 f3 ab bc f8 ae 70 bd 51 cf 06 3c 78 d3 c1 bc
       -0.020990316 -0.058760613 0.008228139 -0.023660406
000030 47 b5 16 bd b3 9d 10 3e fd 41 e8 3d b0 88 57 3d
       -0.036793973 0.14122657 0.11340711 0.05262059
000040 5f 37 46 bd e4 cf 50 bd dd ca 36 3d 8a 17 c4 bc
       -0.04839265 -0.05097951 0.04462706 -0.023937006
000050 0d 10 04 bc d8 03 34 3c 75 3c 1c bc f1 14 b8 bd
       -0.008060467 0.010987245 -0.009535898 -0.08988369
000060 bb 81 d4 bc cb 32 06 3d 21 4a 9c 3d 05 f5 52 bd
       -0.025940767 0.032763284 0.076313265 -0.0515032
000070 8e c1 3a 3e f3 23 8c bd 27 b0 72 3d 2b de c6 3c
       0.18237898 -0.06842794 0.059250023 0.02427586
000080 c0 86 57 bd 6d 03 51 bd d4 79 86 3d 73 b6 7b bc
       -0.052618742 -0.051028658 0.065662056 -0.0153633235
000090 e6 2c 3a 3d 62 90 8f ba 69 43 9d 3d bb 3a cd 3c
       0.045452975 -0.0010953064 0.07678873 0.025052419
0000a0 fb 93 e0 3d ec 28 fb bc 66 f2 14 3d 4d f6 1f 3d
       0.10965725 -0.030659162 0.03636398 0.03905325
0000b0 ee d1 82 bb f4 c1 d8 bd 5f f8 c0 3c d1 fb 3b 3c
       -0.0039923107 -0.105838686 0.023555933 0.011473612
0000c0 5c 25 0e bd 36 dc 8f bc 94 d2 d5 3d 9b 4a 24 bd
       -0.034703597 -0.01756106 0.10440555 -0.04011021
0000d0 eb 51 17 bd a1 8a 5c bc c7 3f e8 3c 29 0e 50 bd
       -0.036943357 -0.013460786 0.028350724 -0.050794754
0000e0 6e 36 bf 3d 63 ea 15 bd 29 a7 f2 bc 6d 82 58 3d
       0.093365535 -0.03660048 -0.029620724 0.05285876
0000f0 94 db 0b bd 8b b3 63 3c 38 3a 5b 3d ef 15 83 ba
       -0.034144953 0.013897787 0.05352232 -0.0010001044
000100 e2 5f 9e 3d
       0.07733132

weight f4 [63, 65]
000000 0b 34 a2 3c 35 96 c8 3b ca 9e 08 bd de 6c 9b 3d
       0.019800207 0.0061214217 -0.033354558 0.07589124
000010 9b 65 01 3c a4 bc 63 bd d6 82 68 bd dd 9a 54 bd
       0.00789776 -0.055599824 -0.0567654 -0.0519055
000020 82 67 d9 3b 6a df d3 bd 7b cd 75 3d 81 a4 07 3d
       0.0066346535 -0.10345347 0.060010415 0.033115868
000030 af fc a6 bb cc e2 cb bc ff 3a b5 3d e5 07 e6 3d
       -0.00509604 -0.024888419 0.08849143 0.112319745
000040 5a a5 0c bd 0f 42 c6 bd a7 ca e9 bd 46 d0 dc 3c
       -0.03433738 -0.096805684 -0.11415606 0.026954781
000050 ed ac bb 3d af 0f 95 bd 8f 82 d0 3d 63 57 c1 bd
       0.09163842 -0.07278382 0.10181152 -0.09440496
000060 41 d4 c8 bd 94 df 55 bd 49 11 2d 3d 05 2b 80 bd
       -0.09806109 -0.052215174 0.042252813 -0.06258205
000070 bc b9 97 3d f9 07 8f 3d e8 6f 35 3d b1 6e 1f bd
       0.07408473 0.069839425 0.044296175 -0.038923923
000080 67 29 3a 3d c1 19 bb 3d 24 52 b1 bd 1c ed ed bd
       0.04544964 0.091357715 -0.08658245 -0.11617491
000090 92 65 2c 3d c8 d1 cb 3d 38 69 ef 3d ab 06 b3 3d
       0.042089052 0.09952122 0.11689991 0.08741506
0000a0 53 3c 57 bd 5f a6 8f bd ae 7e 7a bc ea 9f bd bd
       -0.052547764 -0.07014155 -0.015288992 -0.09259017
0000b0 19 19 d0 3d b1 ae 0b 3d 7c 36 f9 bd 23 64 c0 bd
       0.10161037 0.034102146 -0.12168595 -0.093940996
0000c0 82 ef 19 bd 52 d8 aa bd 38 84 8a bd 6c 8b cb bb
       -0.037581928 -0.08342041 -0.067635 -0.0062116887
0000d0 e0 23 40 bd 87 2b 8a bc b8 71 e8 3d ba 0c 99 3d
       -0.046909213 -0.016866459 0.11349815 0.074731305
0000e0 ff 77 a3 3d a1 d6 81 ba 07 4e 6d 3d 5f 07 4c 3d
       0.07981872 -0.0009905883 0.05793574 0.049811717
0000f0 0f 4c 8f 3d 08 4d 80 3d e5 f5 b4 bc bd e5 09 3d
       0.06996929 0.062646925 -0.022089908 0.03366636
000100 ce 91 3d bd ba 95 f9 bd 99 0a a0 3b 92 d7 cc 3c
       -0.04628163 -0.12186761 0.004884076 0.025005136
000110 6f 77 25 3d 31 e7 81 3d 1f 2e ed 3c ff 84 dc 3d
       0.040397104 0.063429244 0.028952656 0.107675545
000120 52 a7 19 3c 1b 6c f0 3d 3b 90 70 3d a0 72 d6 bd
       0.009378271 0.117393695 0.0587313 -0.10471082
000130 b6 2f 1e 3c a7 e7 e4 3b a7 88 32 3d 0d 27 b2 3a
       0.00965493 0.006985623 0.043587353 0.001359196
000140 b6 38 bf bd 48 02 b7 3c 35 b1 38 3c 96 0a 91 3d
       -0.09336989 0.022339955 0.011272718 0.07082097
000150 e7 fc b7 3d 5d 8a 10 bd 51 70 f1 bd a7 6c fe 3d
       0.08983784 -0.035288204 -0.11789001 0.124230675
000160 a1 ad 24 bd cd 4e a1 bc 36 3b f3 bc 99 7e fb bd
       -0.040204648 -0.019690895 -0.02969132 -0.12280006
000170 a4 47 90 bd 59 9e 72 bd 5a 77 2b bd 0d 80 0a 3d
       -0.07044914 -0.059233043 -0.04186187 0.033813525
000180 a1 eb 98 bd 15 21 89 bc 5d 7b f0 3d b2 2a a8 bd
       -0.07466818 -0.016739408 0.1174228 -0.082112685
000190 93 65 b2 bd d7 ef d7 3d d5 54 f1 3d eb 70 83 bd
       -0.0871078 0.10543793 0.117837586 -0.06418022
0001a0 9d 72 fc bd 43 bd a7 bd 58 33 02 bd ca 20 b7 ba
       -0.12326548 -0.08190396 -0.031787246 -0.0013971564
0001b0 95 c3 d0 bd f8 8f f1 3c af a8 df 3d 98 58 8b 3d
       -0.10193554 0.029487595 0.10920846 0.06804007
0001c0 62 94 96 3d 9d 63 60 3c c9 fc 43 bd 32 2a cb 3d
       0.073525205 0.013695625 -0.047848497 0.099201575
0001d0 69 62 37 bd c2 78 db bd 8b 33 d6 bd 4e ca b6 3d
       -0.044771586 -0.10716392 -0.1045905 0.08925305
0001e0 55 d7 33 bd ba c7 50 bc ff 87 ce bd c6 ee 54 3d
       -0.04390653 -0.012742931 -0.10084533 0.051985525
0001f0 03 f7 76 3c 95 19 2e bd 42 f6 97 bd 36 c4 bf bd
       0.015073541 -0.042504866 -0.07420017 -0.09363596
000200 ce fc 4d bd 7c 19 68 bc 90 54 31 be 6b 18 a8 3d
       -0.05028992 -0.014166232 -0.17317414 0.08207782
000210 13 44 ea 3d 73 28 f4 bd ba d7 23 bc 69 09 68 3e
       0.114387654 -0.119217776 -0.010000164 0.2265984
000220 7e e7 36 bc 1c 73 cf 3d d3 9c a0 3c 07 c5 75 bc
       -0.0111635905 0.10129377 0.01960603 -0.015000588
000230 de 69 00 be 45 c8 1d be b4 91 b8 bd 49 cd 23 3e
       -0.12540385 -0.15408428 -0.09012166 0.15996279
000240 b1 f0 68 3e af 06 0b 3e d6 0c 6c bb 03 83 ac bd
       0.22748066 0.13576768 -0.0036018393 -0.08423426
000250 b6 d1 68 3c be ab 72 bd c7 06 44 3c af 0f a8 bd
       0.014210155 -0.059245817 0.0119645065 -0.082061164
000260 05 6e 91 3c 83 f9 14 3e d2 0c 0e 3e 86 8f f0 bc
       0.017752657 0.14548306 0.13872078 -0.029365312
000270 d8 c0 9e 3d d2 09 5b 3d dc d0 5f 3d 7d 37 28 3e
       0.07751626 0.053476162 0.054642543 0.16427417
000280 28 92 b7 bd ac 51 d4 3c 07 2c ad 3c d0 59 fb bc
       -0.08963424 0.02591785 0.021139158 -0.030682474
000290 e0 2d bd 3d 21 22 d9 3d aa 30 55 3d f5 7f 39 bd
       0.092372656 0.10602213 0.052048363 -0.045288045
0002a0 6f bf 3c 3e 09 94 0f 3e 6a c4 cf 3d 5c 42 e5 bd
       0.18432401 0.14021315 0.10144885 -0.11194298
0002b0 4c e5 07 3c 69 74 e0 bd ff 73 cd 3c b6 35 42 bd
       0.008294415 -0.109597035 0.025079725 -0.047414504
0002c0 13 7e 40 bd c0 46 16 be cd 73 ca bd 8b a0 79 bd
       -0.046995234 -0.14675426 -0.098853685 -0.06094412
0002d0 4e f2 38 3e fe 79 6d bd f4 9f e4 3d ee df 08 3e
       0.18061182 -0.05797767 0.11163321 0.13366672
0002e0 fd b0 b6 3c 61 81 93 bd f1 9e 3c 3d 37 75 39 bd
       0.022301191 -0.072024114 0.046050016 -0.0452778
0002f0 dd b3 e0 3d e8 97 fd bc dd 75 d4 3c cd fc 2a bb
       0.10971806 -0.030956224 0.025935108 -0.0026090622
000300 ab 8b ed bd 24 13 5e 3d dd 48 11 3e f4 8e 07 bd
       -0.11598905 0.054217473 0.14187951 -0.033095315
000310 9f fc b2 bd d8 9c da 3d 3a f5 a7 bd e7 93 08 3d
       -0.0873959 0.10674447 -0.0820107 0.033344176
000320 63 28 2c 3e df a6 28 bd 64 9d 1c 3d 44 cd b6 bd
       0.16812281 -0.041174766 0.038236037 -0.0892587
000330 d1 36 2b bb 7d 70 5d 3d 58 e4 a2 bc f4 2d 36 3d
       -0.0026125202 0.054062355 -0.019884273 0.044477418
000340 24 44 b8 3b b5 4b 11 3e 8e 91 f5 3c fb 37 c7 3c
       0.0056233574 0.14189036 0.029976632 0.024318686
000350 61 dd 99 3d 2c 97 5e 3d ba b0 ac bd 43 83 91 bd
       0.07512928 0.054343387 -0.084321454 -0.07105114
000360 99 e8 b5 bb 1d f7 2c bd 94 fe 99 bc 2b 50 62 3d
       -0.0055514094 -0.042227853 -0.01879815 0.055252235
000370 58 52 23 bd 94 40 7f 3d 93 0b a4 3d f3 00 14 3e
       -0.03987345 0.062317446 0.0801002 0.14453487
000380 8a 8b 0b 3e 67 7c b5 bd a4 d7 59 bd f4 c2 cd 3d
       0.13627449 -0.088616185 -0.053184167 0.1004695
000390 1d 32 6e 3d b8 cc 84 3c 19 a5 a3 3c b8 fa d2 3d
       0.05815326 0.016210899 0.019976186 0.10301727
0003a0 99 55 e9 3d 0d 48 cf bc c5 1b 52 3d 6b 80 b6 bd
       0.113932796 -0.025302911 0.051296014 -0.089112125
0003b0 b8 8a fb bd a8 ae c0 3d 65 7e 09 bd 4b 7b a0 bd
       -0.12282318 0.09408313 -0.033567805 -0.07836016
0003c0 24 95 e1 3b 71 69 80 3d 56 b8 ce bd f3 ca af bd
       0.006884234 0.06270111 -0.10093753 -0.08583631
0003d0 47 45 16 bb 97 05 44 3d a9 a1 8d 3c fb c9 74 3b
       -0.0022929476 0.047856893 0.017289 0.0037351835
0003e0 88 99 93 3d 8e 7a c5 3a c8 c0 98 bd 9a b9 a5 3d
       0.07207018 0.0015066431 -0.07458645 0.08092041
0003f0 76 39 9b 3d f5 23 71 bd b8 b0 02 3d 5e 81 09 3b
       0.07579319 -0.058872182 0.031906813 0.002098165

bias f4 [63]
000000 0f c5 d0 bd ed 6d 3d bd ea 8c 89 3e 90 fe a2 bb
       -0.10193836 -0.04624741 0.2686532 -0.004974194
000010 ae 6c 69 3e 5d f9 34 3d 55 84 a9 bd 16 a4 ef 3c
       0.22795364 0.044183124 -0.082771935 0.029253047
000020 26 e4 a9 bd 74 90 50 3c 55 a8 81 3c 95 93 6a 3c
       -0.08295469 0.012729753 0.015827337 0.014317413
000030 34 9a c5 3d 69 82 0a be 7d 6b ac bc 2d 76 d1 bd
       0.096485525 -0.1352631 -0.021047348 -0.10227618
000040 51 2f f6 bd 89 a1 3e 3e 30 ef c2 3d 7d d0 2a 3e
       -0.12020744 0.18616308 0.09518278 0.16681094
000050 17 97 c9 bc 8d 02 53 3d 7b e7 8d 3d ed 7b b9 bd
       -0.024608178 0.051516104 0.06928917 -0.0905684
000060 cd d0 88 3e 36 b1 eb 3d 29 97 64 bd 34 66 3f 3d
       0.26721802 0.1150841 -0.05580822 0.046728328
000070 3e 76 75 3d b1 ee d1 bd d1 6a 1a 3e fe be 0a be
       0.059927218 -0.10250605 0.1507981 -0.1354942
000080 ff cd d7 bd 22 87 5e 3d a0 33 34 bd 45 68 6b 3d
       -0.105373375 0.05432809 -0.043994546 0.057472486
000090 19 0d d6 3c 12 cf da bd fe 20 c2 bd c8 74 fb bd
       0.026129292 -0.10684027 -0.09478949 -0.12278134
0000a0 34 d7 55 bd 58 aa be 3c 81 e4 db bd 43 a5 6d 3e
       -0.052207187 0.023274586 -0.10736943 0.23207574
0000b0 57 ba 49 bc 7d 49 3d bd cb 5a 7f bc 3b 77 99 bd
       -0.012312493 -0.046212662 -0.015585612 -0.074934445
0000c0 9a fa d2 bd c5 0a cc 3c 0c 98 78 bd 23 88 d2 3d
       -0.10301705 0.024907479 -0.06069188 0.10279872
0000d0 b6 36 43 3e af 60 06 be 71 9a ff 3c a8 64 36 bd
       0.1906384 -0.1312282 0.031201573 -0.044529587
0000e0 2c 4c 8d 3d 35 c3 46 3d 18 9a ba 3b dc 59 8e bd
       0.06899294 0.048526008 0.005694639 -0.06950733
0000f0 04 67 b7 3b 51 a7 eb bd b5 ba c8 bd
       0.005596997 -0.115065224 -0.098012365

weight f4 [59, 63]
000000 30 de 12 bd 09 11 51 ba ca 85 b8 bd 34 7c ba bd
       -0.035856426 -0.0007975256 -0.09009893 -0.09105721
000010 8e 03 c5 3c 7b 2c 90 bd b7 fd a5 bd c0 53 af bd
       0.024049547 -0.07039734 -0.08105033 -0.08560896
000020 27 38 df 3c eb 67 8e bd b4 9c f5 3d 22 76 c6 3d
       0.027248455 -0.069534145 0.119927794 0.09690501
000030 2a f9 f5 3d 0e e2 e0 bc 81 83 36 bc a0 de 5f bd
       0.12010415 -0.027451541 -0.011139751 -0.05465567
000040 12 83 f4 bd c3 1d 02 3d 3d ff 77 bd 7a 79 43 3c
       -0.11939062 0.031766664 -0.06054615 0.011930818
000050 76 7a 55 3d 2c 11 d9 3d 70 fd 9e 3d 8b 99 fd bc
       0.05211874 0.105989784 0.07763183 -0.030957004
000060 59 c3 f0 3a c4 20 23 3d 40 d3 c9 bd 42 7d 87 3d
       0.0018368765 0.03982617 -0.09854746 0.06615688
000070 6f 17 31 bd 26 df 00 3e c3 86 80 3d 87 f8 a9 bd
       -0.04323524 0.12585124 0.06275704 -0.08299356
000080 38 ca c1 3d 12 50 27 bd 1e 54 aa 3d 17 64 dd bd
       0.09462398 -0.040847845 0.08316825 -0.10810106
000090 63 da ed bc 12 fb 8f 3a 4c 26 01 be 9d 78 e9 bd
       -0.029034799 0.0010984859 -0.12612265 -0.11399958
0000a0 78 a1 ce bd 8d b3 8f 3d 64 b1 de 3d a8 38 85 bd
       -0.100893915 0.070166685 0.10873678 -0.06504947
0000b0 d7 2e aa 3d b4 64 ee 3d 63 da cd 3b 90 60 d6 bd
       0.08309715 0.11640301 0.0062821372 -0.104676366
0000c0 77 2e 01 3d d1 02 81 3d 69 b1 f0 3d 97 09 b8 bc
       0.031538453 0.06299365 0.11752588 -0.02246551
0000d0 f3 5d cb 3c b5 46 a3 3d f7 99 1d bd 76 78 46 3d
       0.024825072 0.07972471 -0.03847691 0.048454724
0000e0 6a 08 85 3d 57 bb f4 3d 14 21 ea bd 9d 3e 85 bc
       0.064957455 0.11949795 -0.114320904 -0.016265208
0000f0 b3 8d 4a 3d f1 11 4d bd 86 e2 b1 bc 8d 45 6b bd
       0.04945154 -0.05006594 -0.02171446 -0.057439376
000100 53 3a 4b 3d e8 31 c2 bd 60 fc ad 3b d9 ac be 3d
       0.04961617 -0.09482175 0.0053096265 0.09310312
000110 38 32 a5 bc ec 72 b3 3d 80 40 3c 3e da 6f bd bd
       -0.020165548 0.08762154 0.1838398 -0.092498496
000120 e4 60 01 3e b9 21 8a bc ed 3b 35 3c 96 22 99 bd
       0.12634617 -0.016861783 0.011061651 -0.074773
000130 24 8a 5d bd 49 ac 9d bd 2a 97 17 bd 68 48 d5 bd
       -0.05408682 -0.076988764 -0.037009396 -0.10414201
000140 94 bb a6 bb a7 63 32 ba 41 b3 5e 3d 16 f1 b1 bc
       -0.005088279 -0.00068050105 0.05437017 -0.021721404
000150 ca 8c 63 3d 31 b1 59 bd 8d a4 5b 3d ee e8 33 3d
       0.05555419 -0.0531475 0.053623725 0.04392331
000160 b3 b6 a9 3d fe 73 dd bc 92 d4 dd bc 63 a0 1c 3e
       0.082868 -0.027032848 -0.0270789 0.15295558
000170 69 d5 f5 3c 73 b6 1a 3e b2 ec da bd 0b 55 d5 3c
       0.030008988 0.15108661 -0.10689677 0.026041528
000180 db 74 07 3e 8f d3 82 bd 60 58 e5 3b 55 60 75 bd
       0.1322817 -0.06388008 0.0069990605 -0.059906323
000190 f0 b2 5c bd 8f 85 0c bd f3 6e cf bd ef 66 af bb
       -0.053881586 -0.03430706 -0.10128584 -0.005352847
0001a0 3c 2a eb 3d e7 34 a2 bd 12 3d bb bd af fb d8 3c
       0.11482665 -0.079202466 -0.091425076 0.0264872
0001b0 13 0a 63 3d f7 cc 93 3d 3d e4 9d 3d 38 f5 00 bd
       0.05542953 0.07216828 0.077095486 -0.03148386
0001c0 bb e8 94 3d 11 03 64 3d d9 d7 a4 3b b8 6e 0a be
       0.07270952 0.055666987 0.005030614 -0.13518798
0001d0 8e 1d 67 3c 19 65 23 3d c5 01 b1 3d 5c 99 b8 3d
       0.0141061675 0.039891336 0.08642916 0.09013626
0001e0 d8 d6 0c 3e f9 41 0d 3e 6b 32 f6 3d ab e1 c7 3d
       0.13753831 0.13794698 0.12021335 0.097598396
0001f0 60 93 d6 bd cc 03 93 bd aa 2a 06 3c ac 93 cb bd
       -0.10477328 -0.071784586 0.008188883 -0.099402755
000200 1f b2 f2 3d fe 29 5c 3c 2a 1e d6 bd a7 f6 fb 3d
       0.1185038 0.013437746 -0.10454972 0.123029046
000210 44 3b 8b 3d 3a 66 13 bd 77 09 52 3b e5 25 6a bc
       0.067984134 -0.035986163 0.0032049099 -0.014291261
000220 9e 09 cd bd aa a8 ee b8 3c 70 e0 3d 62 80 95 3d
       -0.100116 -0.000113801405 0.10958907 0.07299878
000230 e9 bf f4 3c f3 cb 46 3d a5 eb 20 bd 3e 66 fa bb
       0.029876666 0.048534345 -0.039287228 -0.0076415827
000240 6f 41 30 bc 6e 4e 54 bc 20 7d f2 3c 97 0d 31 3d
       -0.010757788 -0.012958152 0.02960068 0.04322585
000250 25 05 82 bd 5c c0 df 3d 5c 71 a0 3c c7 79 4d 3d
       -0.063486375 0.109253615 0.019585304 0.050164964
000260 9f 54 fe 3d 3f 64 c7 3c b8 55 8a bd b0 e6 f4 bd
       0.12418484 0.024339793 -0.06754631 -0.11958063
000270 b7 74 0a 3e e5 0b a6 3d 04 6f 98 bd 5f ba 49 3d
       0.13521086 0.081077375 -0.074430496 0.049250003
000280 fd 8f 0c bd af e7 11 3d e7 eb 31 3d d0 f2 80 3d
       -0.034317005 0.03562134 0.043437865 0.06296313
000290 c9 61 11 bc e8 ca 8b 3d 85 d0 06 3d 6a d3 d3 bd
       -0.008873411 0.06825811 0.032913703 -0.103430584
0002a0 21 72 d4 3d af 5e b1 bd 27 4c 24 bd 00 e2 c2 3d
       0.10373331 -0.086606376 -0.040111687 0.09515762
0002b0 48 b2 6f bd 83 c7 fc 3c e8 8f c5 bc ca 19 6d bc
       -0.05851963 0.030856853 -0.024116471 -0.014471481
0002c0 34 c8 8a 3d dd 96 32 bd 06 9e c2 3c 99 a1 fa 3d
       0.06776467 -0.043600906 0.023756992 0.122378536
0002d0 82 e4 52 bd 99 5c 53 3d a8 f3 de 3d ae 46 c2 bd
       -0.051487453 0.05160198 0.108863175 -0.09486137
0002e0 65 a2 27 bd 71 f0 04 bd 5a 4b 38 3d 14 10 be bd
       -0.040926356 -0.032455865 0.044993736 -0.092804104
0002f0 d4 3b 09 3d f4 e3 92 3c e1 43 07 bd 28 10 c1 bc
       0.033504322 0.017930962 -0.03302372 -0.023567274
000300 3e ca 2c 3d 41 28 86 bc 41 71 6d 3d 3a 2f 58 bd
       0.04218506 -0.016376616 0.057969335 -0.052779414
000310 a4 71 ba bc 4f 87 7b 3c d0 96 a6 bc 77 3a b4 bd
       -0.022759266 0.015352084 -0.020335585 -0.08800214
000320 e6 89 c7 3d db 17 2c 3d 90 89 40 3c de be 10 3d
       0.09743099 0.042014938 0.011751547 0.035338275
000330 b2 0e 03 3e 01 11 04 3e c6 29 4a 3d 87 80 4d bd
       0.12798575 0.12897111 0.049356245 -0.0501714
000340 f3 e0 c6 3d c4 ae e1 bc a0 85 0b 3a a8 9b 96 bd
       0.097108744 -0.027549155 0.0005322341 -0.07353908
000350 1c d6 c2 bd 04 9e 93 bb a3 49 28 bd da 55 d1 3d
       -0.09513494 -0.004504921 -0.04108585 0.10221453
000360 cf 64 c0 3b f9 da 3f 3d 16 44 c6 3d cc 9d b0 3d
       0.0058713923 0.046839688 0.09680955 0.08623847
000370 6b b2 43 3c 9f 04 de 3d 0f a1 c0 bd 39 21 00 bd
       0.011944394 0.10840725 -0.094057195 -0.031281684
000380 2f 9d 8d 3c ad fd cb 3d 89 99 8d 3d 94 72 1e 3c
       0.017286865 0.09960494 0.0691405 0.009670872
000390 3e 34 23 3d 0a c5 1e bd 1b d0 14 bd 4d 4e 93 bd
       0.039844744 -0.03876213 -0.036331277 -0.07192669
0003a0 07 58 d0 3d a6 e8 18 3d 42 2c 8e bc d3 34 ed bd
       0.1017304 0.037331246 -0.017355088 -0.11582341
0003b0 de b3 90 bd a2 e7 81 3c 3e 02 8b 3c fc 84 f3 3c
       -0.07065557 0.015857521 0.016968843 0.029726498
0003c0 c4 28 8f 3d 1a 1c 14 3d b2 d9 e5 bd 65 35 a2 bd
       0.06990197 0.036159612 -0.11223163 -0.079203404
0003d0 df 1f d8 3d 5f d0 9e bd 23 81 68 bd 30 43 5a bc
       0.10552954 -0.077545874 -0.05676378 -0.013321683
0003e0 ad 27 5c 3d 86 20 5f bd 74 41 dd 3c 87 b8 5f bd
       0.053748775 -0.054474376 0.02700875 -0.05461934
0003f0 7d 94 a8 3d 04 ae 1a bd e0 a5 54 bd 87 36 ee bd
       0.08231447 -0.03776361 -0.051916003 -0.11631494

bias f4 [59]
000000 ad 95 2b 3d c1 fc c6 3d b8 73 48 bd 31 7c fc 3b
       0.04189079 0.09716178 -0.048938483 0.0077052345
000010 01 ea 36 3e 1b 18 37 3e d2 ac b7 ba 74 c8 0a 3e
       0.17862703 0.1788029 -0.0014013296 0.1355303
000020 ac b5 25 be 15 aa e8 3d d1 e5 a1 bd 14 27 ea 3d
       -0.16182584 0.113605656 -0.07905162 0.11433235
000030 3d 8d 8a 3c f8 47 ea bd 08 e9 3d 3e 30 3c 6f 3e
       0.01691305 -0.11439508 0.18545926 0.23362803
000040 45 1f cf bd 32 4e b7 3d 9e 71 e9 bd b6 88 94 3c
       -0.10113386 0.089504614 -0.11398624 0.018131595
000050 24 d7 12 be ea 12 c8 bd 60 6b 83 bc 93 f0 3c 3e
       -0.14339882 -0.097692326 -0.016042411 0.18451147
000060 fe 82 59 bd e7 95 4f 3e fe 66 4b 3e dc c5 34 3e
       -0.05310344 0.20272027 0.19863507 0.17653602
000070 56 71 c4 3d ef 21 6c bd f0 fd c7 3c bb ec cb 3d
       0.095919296 -0.05764955 0.024413079 0.09957262
000080 88 52 e7 3d 5a d3 bb bd be e0 e7 3d 09 f3 33 3c
       0.112950385 -0.091711715 0.11322163 0.010983237
000090 14 99 9e 3e 0d 65 94 bd ec 13 dc 3d 4e 28 ad 3d
       0.30976164 -0.072458364 0.10745987 0.08454953
0000a0 e8 c9 f3 bc be 97 b1 bd 40 7e bf bd 6f 47 36 3d
       -0.029759362 -0.08671521 -0.09350252 0.044501718
0000b0 9b 21 7a 3e 47 13 47 3d 1b 1b 4a 3d df 21 d5 bd
       0.24426882 0.04860237 0.049342256 -0.10406851
0000c0 38 0f 71 bd a1 59 54 3e f8 d5 ac 3e ea 5c de bd
       -0.058852404 0.20737316 0.33756995 -0.10857566
0000d0 9f 16 7b 3e b7 88 de bc 1b 3b 74 bd 9c 1d b6 3c
       0.24520348 -0.0271648 -0.05962668 0.022230916
0000e0 1b 75 8e bd 0b 7a c2 bc 3c 97 82 3e
       -0.0695593 -0.023739835 0.25506008

weight f4 [1, 59]
000000 02 da 4f 3d 50 d1 94 3e 3d 97 56 bd e0 2c 91 bb
       0.050745018 0.29065943 -0.052390326 -0.0044303983
000010 bb 53 cb 3e 0b ac 30 be d2 d6 26 bc a1 cc 47 3e
       0.3971232 -0.17253129 -0.010183053 0.19511653
000020 95 da d1 bd 83 6a b8 3e ca 65 ec bc d2 d8 9c 3e
       -0.10246769 0.36018762 -0.02885713 0.3063417
000030 7e 17 94 be 87 b2 fb 3d 33 9f 76 be 25 ea bc be
       -0.28924173 0.12289911 -0.24084167 -0.36897388
000040 ae f4 34 bd 7e f0 3d be d8 77 9a bc 43 c8 58 3d
       -0.044178657 -0.18548772 -0.018855974 0.05292536
000050 9e ba e5 bd 81 61 24 bd dc 9c 2c 3d 6b 5a 21 3e
       -0.11217235 -0.04013205 0.04214178 0.15757148
000060 b0 af 48 be 3e 7a b6 be 90 5b 94 3e 36 15 70 be
       -0.1959827 -0.35640138 0.28976107 -0.23445591
000070 d7 de 0f 3e 87 9d 91 be f0 a7 1c be 73 d5 90 bd
       0.1404985 -0.28440496 -0.15298438 -0.07071962
000080 c2 3e a4 bd 0c 26 4b 3c 17 a7 43 be 90 55 5a 3c
       -0.080197826 0.012399208 -0.19106708 0.013326064
000090 50 7c d5 be 0c 64 c0 3d ed 58 f4 bd 44 f6 b8 be
       -0.41696405 0.093940824 -0.11931024 -0.36125386
0000a0 1c 2f d3 3d a5 77 7f bd 90 ad c7 3d df 43 96 be
       0.1031172 -0.06236996 0.09749901 -0.29348657
0000b0 86 cc cb be fc 83 fb bd f2 76 63 3e 8c 8f f1 3d
       -0.39804476 -0.122810334 0.22213343 0.117949575
0000c0 d0 f1 c4 bd 32 15 bd 3e 55 69 f7 be 80 c5 d0 3a
       -0.096164346 0.36930233 -0.4832255 0.0015928
0000d0 03 47 8e be b3 af d9 3c 4d 40 ab 3c 32 70 7f 3e
       -0.27788553 0.026573038 0.020904684 0.24945143
0000e0 02 7c f8 ba 16 4d 8f bd b8 3d bd be
       -0.0018957856 -0.06997125 -0.3696115

weight f4 [65, 288]
000000 40 5e 44 bb f5 97 56 bd 6f 6c e4 bc fa e1 93 3c
       -0.0029963404 -0.05239101 -0.027883736 0.01805209
000010 4b 0b 32 bc b2 5c 8b bd 40 b6 0b bd b2 60 b8 bc
       -0.01086695 -0.068047896 -0.034109354 -0.022507045
000020 4b de 7a bd 7e 25 84 bc 82 cb cb bc db f0 2e bd
       -0.06124715 -0.016131159 -0.024877314 -0.042710166
000030 6c c9 1f bd 86 cc 07 3d 7d 20 43 3d c0 db f8 ba
       -0.03901045 0.033154033 0.047638405 -0.0018986389
000040 03 8e 23 3d 86 33 e4 3c 66 d0 65 3d 5d 2f 1b 3c
       0.039930355 0.0278566 0.056106947 0.0094717415
000050 82 08 f4 3c 0e 95 04 bd 1b a9 22 bd cb 78 2b 3d
       0.029789213 -0.032368712 -0.039712053 0.041863244
000060 6c 38 51 bc 25 a2 16 bd 6f 92 f5 bc 00 1f 30 39
       -0.0127698 -0.036775727 -0.029977052 0.00016796216
000070 6f 26 68 bd 74 58 49 bd af 61 51 bd 87 c5 34 bc
       -0.056677278 -0.04915662 -0.05111855 -0.011033422
000080 b2 fa 89 3c 45 26 e2 bb 24 40 07 3c 28 d0 ec 3b
       0.016843174 -0.0069015347 0.008255038 0.0072269626
000090 9e 75 99 bc 75 03 9f bc 9e 12 86 3c 0d 14 f7 3b
       -0.018732842 -0.019410828 0.0163663 0.007540232
0000a0 0a fa 0a bc da 9b 9b 3c 19 fd 50 3d 64 7d 03 3c
       -0.0084824655 0.018995214 0.051022623 0.008025501
0000b0 eb ba 65 bd a0 72 62 bc 6c 2f 07 3c 00 4f 5b bb
       -0.056086462 -0.013821274 0.008251052 -0.0033463836
0000c0 6d 79 15 3d 82 66 63 bd 82 d1 03 bd 7d a7 80 3d
       0.036492754 -0.05551768 -0.032182224 0.06281946
0000d0 e6 09 df bc 12 d8 4f bd 2d 5e 38 3d d8 6d 27 bc
       -0.0272264 -0.05074317 0.045011688 -0.01021906
0000e0 1e eb 9e 3c 59 13 ba bc ca e6 ed b9 ac 95 b2 3b
       0.019399222 -0.022714304 -0.00045376114 0.005449971
0000f0 ac b5 2b bc e9 51 ac 3c 73 0c 06 bd a8 4a 00 bd
       -0.010480326 0.021035152 -0.032726716 -0.031321198
000100 74 14 3f 3c b0 6e 45 3b ad 68 6d 3d 98 63 a9 bc
       0.011662591 0.003012579 0.057961155 -0.020677373
000110 68 8d 23 3d a1 4f fd 3c 7b f0 03 3d da 15 29 3c
       0.039929777 0.03092176 0.032211762 0.010320151
000120 12 51 c4 bc 5a b7 c6 3c ba ea 51 bd 77 5a 48 3d
       -0.023964439 0.02425735 -0.051249243 0.0489144
000130 55 09 3f bd 38 41 c4 bc e5 cc 05 3b 82 d1 cb bc
       -0.04663976 -0.02395688 0.0020416316 -0.024880175
000140 43 f2 13 3d c8 07 70 bd 10 ec c9 3c b9 c1 37 3d
       0.03611971 -0.05860117 0.024648696 0.044862483
000150 f0 59 c3 bc 07 d1 2f bc d7 8d b5 3b 63 66 9d 3c
       -0.023846596 -0.010730988 0.0055405903 0.01921386
000160 80 0d c0 bc 06 66 0e 3d ac 86 09 3d 61 dd d7 3c
       -0.023443937 0.034765266 0.0335757 0.026350679
000170 e8 51 6d bd df 0b 54 3d c2 dd 26 3d 00 25 3e 3d
       -0.05793944 0.051769134 0.04073883 0.046422005
000180 d6 37 2f bd 3a e6 fc 3c 6c 03 a1 bb 49 0e 5d bd
       -0.04277786 0.0308715 -0.004913738 -0.0539687
000190 64 72 d0 bc 18 8d 96 bb 3e 2f 5e bd f7 28 4d ba
       -0.02544517 -0.0045944564 -0.054244272 -0.00078262336
0001a0 b0 47 5d bc 41 3c 29 3d 47 9f 34 bd 85 cd 0a bd
       -0.013505861 0.04131723 -0.04409721 -0.033887405
0001b0 c2 3a 86 3c 4c 95 47 bc ec 4b 41 3c 23 94 55 3d
       0.01638544 -0.012181591 0.011797886 0.052143227
0001c0 d2 dd c3 3c 38 37 3f bc 7c c4 c7 bc af b4 5e 3d
       0.023909483 -0.01167088 -0.024385683 0.054371532
0001d0 6a 70 21 bd 64 76 62 3c cd 59 3c 3d 3c 04 77 bc
       -0.039413847 0.013822172 0.04598408 -0.015076693
0001e0 80 9c 3a ba 03 eb 93 39 16 f0 5b bd a4 a6 f6 3c
       -0.0007118657 0.00028213122 -0.05369576 0.030108757
0001f0 f5 b9 80 bc a0 9d d8 bb 9a b9 13 3d 4a 4c ae bc
       -0.015713671 -0.0066105872 0.036065675 -0.021276612
000200 c7 b8 44 bb 27 31 62 bd 80 13 c3 3c fe c9 a0 bc
       -0.0030017362 -0.055222657 0.02381301 -0.019627567
000210 41 25 61 bd 10 d9 3d bc ac 4e 36 3c 09 04 1b bc
       -0.05496717 -0.011587396 0.011127155 -0.009461411
000220 f7 2b cb 3c 3e 75 f6 3c eb 6a 4f bd 6c 99 70 bd
       0.024801238 0.030085202 -0.050639074 -0.058740065
000230 d7 1c 0a 3d 6a 5d 05 3c 6a ce 08 3d 20 b9 1a bd
       0.03371891 0.008139947 0.033399977 -0.037774205
000240 bf b7 cb 3c 0c d3 b3 3d 92 aa 24 3d b9 67 97 bc
       0.02486789 0.08780488 0.04020173 -0.018482076
000250 a2 59 32 3d 8c 92 1c bd 3c 2e 59 bd 51 53 0f bd
       0.04354251 -0.038225695 -0.05302261 -0.034991566
000260 a9 da 32 3c 15 d8 12 39 82 8d a0 bd b1 6f 3b 3d
       0.01091639 0.00014004142 -0.078394905 0.045760814
000270 3e 98 63 3c fe 55 b4 3c c0 f0 8d 3c d8 7d 9b bd
       0.013891278 0.02201366 0.017326713 -0.07592362
000280 93 35 f6 bc 88 cb 33 bd d0 50 c5 bd a6 9a 7f bd
       -0.030054843 -0.043895274 -0.096345544 -0.062403344
000290 d5 45 ef bc 3c e1 49 3d 0c b6 cc 3c 79 3f a1 bc
       -0.029208103 0.049287066 0.02498915 -0.019683586
0002a0 f4 c0 2c 3d cb ba 3c 3d f4 95 cb 3d a0 38 52 3d
       0.042176202 0.046076577 0.09940711 0.051323533
0002b0 a0 e6 f3 3c 28 31 7b 3d 33 d1 8f bd db 23 28 3d
       0.029773057 0.061326176 -0.070223235 0.04104982
0002c0 dd 6c 87 bd 0a 30 fd bb a3 14 84 3d 0f ec b4 bc
       -0.06612561 -0.007726674 0.06449249 -0.022085218
0002d0 b3 17 68 3d df c8 44 bd c5 fe 82 bc a8 7e 3e bd
       0.056663226 -0.048043128 -0.015990624 -0.046507508
0002e0 8c 81 7c 3d 76 87 31 3d ea 67 97 bd ef f7 c3 3d
       0.061646983 0.043342076 -0.07392867 0.09568774
0002f0 46 5f 9c bc cc e1 30 bd 8c c4 1d 3d fd d5 a5 3d
       -0.019088399 -0.043184087 0.03851752 0.08097456
000300 1b 76 8f bd ca d5 4b 3c 0a a4 89 3c 73 06 9e 3d
       -0.07004949 0.012441108 0.016801853 0.07716074
000310 4c 46 d2 3c 44 2e e4 3a a7 67 33 bd a7 69 e0 bc
       0.025668286 0.0017408808 -0.043800022 -0.027394129
000320 b9 37 ee bd b3 ae dc bc 59 7f 91 bd e7 62 91 3c
       -0.11631722 -0.026938772 -0.07104368 0.017747356
000330 65 c8 ca bb db 57 f9 bd b5 d7 6c bc 1a 03 80 bc
       -0.0061884397 -0.1217496 -0.014455725 -0.015626479
000340 0f be 0a bd 06 c3 63 bd ff 66 f4 bd 2f b9 a8 bc
       -0.03387266 -0.05560591 -0.119337074 -0.020596115
000350 18 cc 54 3a 51 e4 b0 bb 11 af 58 bd ec d6 13 bd
       0.00081175705 -0.005398311 -0.05290133 -0.036093637
000360 eb 98 1d 3b 07 42 75 bb cb 01 8a bd b8 d2 b3 bd
       0.0024047445 -0.0037423389 -0.06738623 -0.08780426
000370 2c 97 3b 3d 4a 68 39 bd 5d 22 76 bc 1d 92 cf 3c
       0.045798466 -0.045265473 -0.015022841 0.025338227
000380 90 dc 82 bd dd 93 c2 3d 06 8c a8 3c 9d 92 5e bd
       -0.06389725 0.09500859 0.02057458 -0.05433904
000390 e6 56 70 3d 9d 83 3b 3d 88 a4 9e 3b 2f 58 a8 3c
       0.058676623 0.045779813 0.004841391 0.020549862
0003a0 e2 b1 f2 3c c0 c6 e7 bc 33 2b 86 3d 48 7e 73 bc
       0.029625837 -0.028293014 0.06551208 -0.014861651
0003b0 e9 ea 27 3d 00 bb f8 3c a9 13 a3 3d 04 79 50 bc
       0.040995512 0.030362606 0.07962734 -0.012724165
0003c0 27 34 d4 bd 1e 22 d1 3b 3c a0 95 bd 9a 17 c6 3d
       -0.1036151 0.006382241 -0.07305953 0.096724704
0003d0 85 4f 54 bd 72 47 22 bd 72 b0 21 bd 6b 34 49 bd
       -0.05183365 -0.039618917 -0.039474912 -0.049122255
0003e0 e6 8c 2c 3c 26 81 24 ba 9f 4c 6e 3c 86 71 94 3b
       0.01053164 -0.0006275348 0.014544635 0.0045301346
0003f0 7f d7 70 bc be ab 47 bd 7b 45 32 3d cc ba bf bc
       -0.014699816 -0.04874777 0.043523293 -0.023404501

bias f4 [65]
000000 5d f0 d0 3c d5 2d 8c 3d 49 f0 17 3e 3d 27 80 bc
       0.02550524 0.06844679 0.14837755 -0.01564371
000010 7b 7b f7 3c 81 e4 f0 3d 1a e9 a3 3a 70 9f 86 bd
       0.030210247 0.11762334 0.0012505383 -0.06573379
000020 b4 3f aa bc a9 c3 6d bd 73 7f 35 3c 04 3a e4 bc
       -0.02078233 -0.058047924 0.01107775 -0.027859695
000030 93 03 24 bd 89 bb 09 3e 22 71 e0 3d ea 94 59 3d
       -0.04004247 0.13450445 0.10959078 0.05312053
000040 2e 94 3e bd ff 4e 59 bd 12 ea 30 3d 40 d5 bf bc
       -0.046528034 -0.053053852 0.043191977 -0.023417115
000050 91 28 d1 bb 6e b5 39 3c f0 67 09 bc 57 59 ae bd
       -0.0063830097 0.01133476 -0.008386597 -0.08513134
000060 72 0b f9 bc a8 67 11 3d fd ef a2 3d 02 49 4e bd
       -0.030400965 0.035499245 0.079559304 -0.050362594
000070 c9 70 36 3e 1e 92 8e bd f3 c8 6f 3d d8 97 d4 3c
       0.17816462 -0.069614634 0.05854125 0.025951311
000080 ab 78 5b bd f6 6f 5a bd 42 e3 82 3d fc bc 72 bc
       -0.053581875 -0.05332943 0.06391002 -0.014815565
000090 68 17 3f 3d 67 4d af bb 6f c2 93 3d 95 84 cd 3c
       0.04665318 -0.0053498033 0.0721482 0.025087634
0000a0 7f 74 d0 3d 9e 0d 0b bd 2d 99 14 3d fb 96 1e 3d
       0.1017847 -0.033948533 0.036278892 0.038718205
0000b0 64 f1 17 bb 1f ef d9 bd 9e 0a e4 3c 6a 5a 5a 3c
       -0.0023184652 -0.10641312 0.027837094 0.01332722
0000c0 87 7a 11 bd 78 16 84 bc e0 cb d2 3d a0 c6 26 bd
       -0.03551724 -0.016123995 0.10292792 -0.040716767
0000d0 eb 18 1f bd 5b b4 43 bc 87 64 dc 3c cf 16 50 bd
       -0.038842123 -0.011944856 0.026903404 -0.050803002
0000e0 be 37 c0 3d 0d a6 09 bd 0c 71 dd bc e1 81 4d 3d
       0.09385632 -0.033605624 -0.027031444 0.05017269
0000f0 b0 19 0d bd 0a d5 2f 3c 6a 26 5c 3d 3a af 67 ba
       -0.034448326 0.010731945 0.053747572 -0.00088380615
000100 69 9d 9a 3d
       0.07549555

weight f4 [63, 65]
000000 43 2d a2 3c e9 8a cc 3b be 8b 0a bd a1 49 9a 3d
       0.019796973 0.0062421453 -0.033824675 0.07533575
000010 f2 de ef 3b 5c b9 63 bd 12 61 69 bd 52 44 53 bd
       0.0073202783 -0.055596694 -0.05697734 -0.051578827
000020 e1 ef c6 3b 87 de d3 bd 92 dd 71 3d b6 99 07 3d
       0.0060710763 -0.10345178 0.059049197 0.033105575
000030 ee d5 a7 bb 57 77 cc bc e1 8f b5 3d f0 8c e5 3d
       -0.005121938 -0.02495925 0.08865333 0.11208522
000040 ef a2 0c bd 35 91 c6 bd 97 aa ea bd fe 91 dc 3c
       -0.034335073 -0.09695665 -0.11458319 0.026925083
000050 e2 bb b8 3d 0d a6 9a bd 2a 0d d0 3d e0 8e c1 bd
       0.09020211 -0.07551203 0.10158761 -0.09451079
000060 3b ec c9 bd 02 23 58 bd 31 b1 2d 3d ae d0 7f bd
       -0.098595105 -0.05276776 0.04240531 -0.06245487
000070 c3 5a 93 3d 6f d6 8e 3d 43 d1 16 3d 5e cc 1f bd
       0.07195046 0.06974494 0.03682066 -0.03901326
000080 77 29 3a 3d df a3 b8 3d a0 db b1 bd f2 ec ed bd
       0.0454497 0.09015631 -0.08684468 -0.11617459
000090 3f 65 2c 3d 12 c9 ca 3d 99 db ee 3d 26 ac b0 3d
       0.042088743 0.09901632 0.11662979 0.08626585
0000a0 0f a3 57 bd 1e 90 8f bd 34 79 7a bc 19 fd bd bd
       -0.05264574 -0.0700991 -0.015287686 -0.0927679
0000b0 aa da cb 3d 33 a5 0b 3d ec 37 f9 bd 62 75 c0 bd
       0.09953816 0.034093093 -0.121688694 -0.09397389
0000c0 97 35 1d bd 7b d8 aa bd e9 bd 8a bd 02 75 ca bb
       -0.038381185 -0.083420716 -0.06774504 -0.006178499
0000d0 e6 af 45 bd d7 9e 96 bc 0f 5d e5 3d 6a 67 98 3d
       -0.048263453 -0.018386288 0.1119939 0.074416
0000e0 65 06 a3 3d 9e ce 31 bb 90 07 6a 3d 09 11 4c 3d
       0.07960204 -0.002713121 0.05713612 0.049820933
0000f0 80 df 8d 3d ff 06 80 3d 8f 10 c9 bc 6d bd 09 3d
       0.06927395 0.062513344 -0.024544029 0.033627916
000100 9e bf 3d bd 43 93 f9 bd 86 60 9f 3b 6a 6c cf 3c
       -0.04632532 -0.12186291 0.0048638014 0.02532025
000110 dc 8f 26 3d 99 91 82 3d f2 1e ed 3c 76 a7 de 3d
       0.04066454 0.06375427 0.02894542 0.108717844
000120 54 e1 1a 3c 9d 4a f2 3d e5 59 70 3d 7f 54 d6 bd
       0.0094531365 0.118306376 0.05867948 -0.10465335
000130 f0 a7 1f 3c d6 b7 e5 3b d9 3f 32 3d 80 99 cb 3a
       0.009744629 0.0070104403 0.04351792 0.0015533417
000140 43 1e bf bd 3d aa b6 3c a8 69 37 3c 8c 6f 91 3d
       -0.09331944 0.022297973 0.011194624 0.07101354
000150 5d 4f b8 3d 86 73 11 bd d5 21 ef bd 47 10 ff 3d
       0.08999512 -0.035510562 -0.11676375 0.124542765
000160 4c 7f 23 bd c0 a8 a0 bc 13 db f1 bc 96 3f fb bd
       -0.03991632 -0.019611716 -0.029523408 -0.122679874
000170 f6 58 90 bd cc 4b 71 bd ce 16 2b bd 7f f1 1a 3d
       -0.07048218 -0.058910176 -0.041769795 0.037827965
000180 b5 95 98 bd b2 13 89 bc c4 79 f0 3d 6b b7 a7 bd
       -0.07450429 -0.016733024 0.11741975 -0.08189281
000190 bc 30 b2 bd 10 f2 d7 3d 2c cd f1 3d e5 81 83 bd
       -0.087007016 0.10544217 0.118067116 -0.0642126
0001a0 d3 2b fc bd 54 7c a7 bd fd 7a 02 bd b4 b2 bd ba
       -0.12313046 -0.081780106 -0.031855572 -0.0014472813
0001b0 c2 d7 d0 bd e8 56 f2 3c 6e 97 df 3d 38 8e 8a 3d
       -0.101974025 0.029582456 0.10917555 0.06765407
0001c0 a2 c4 96 3d 27 e0 65 3c 91 98 43 bd 28 9c cb 3d
       0.073617235 0.014030493 -0.04775292 0.09941894
0001d0 a9 eb 36 bd 6f 83 db bd e7 3b d5 bd c7 e7 b6 3d
       -0.044658337 -0.10718428 -0.10411816 0.08930927
0001e0 5c 44 33 bd 29 25 51 bc 92 bb ce bd 7c a4 55 3d
       -0.043766364 -0.012765207 -0.1009437 0.052158818
0001f0 d7 42 76 3c 02 b5 2d bd ca e8 97 bd 41 ab bf bd
       0.015030584 -0.04240895 -0.07417448 -0.09358836
000200 27 08 4e bd df 4e 65 bc c9 12 31 be ab ad a4 3d
       -0.050300743 -0.013995855 -0.17292322 0.08040937
000210 53 3c e8 3d a3 38 02 be b5 50 0c bc d4 0d 62 3e
       0.11339631 -0.12716918 -0.008564164 0.22075588
000220 5c ab 31 bc 5b 8e c4 3d ad a9 a6 3c d9 d9 34 bc
       -0.010844078 0.09597465 0.02034458 -0.011038267
000230 c7 6e 01 be 12 30 1f be fc d6 b2 bd 30 44 1f 3e
       -0.12639914 -0.15545681 -0.08732411 0.15553355
000240 e2 ee 66 3e 50 ba 09 3e 4e 22 ce bb 36 d9 b1 bd
       0.22552064 0.13449979 -0.0062907105 -0.08684008
000250 81 48 8d 3c 1c df 6a bd ee 3f 2a 3c 16 90 a8 bd
       0.017246487 -0.05734168 0.010391219 -0.08230607
000260 40 2e 94 3c 49 53 14 3e b6 13 0c 3e 78 dc 07 bd
       0.01808846 0.14484896 0.13679394 -0.03316924
000270 16 e6 a0 3d 06 ec 43 3d a0 2f 56 3d d9 0a 26 3e
       0.078563854 0.04783251 0.052291512 0.16215076
000280 f8 aa b5 bd 38 a6 b4 3c ef 0f b0 3c a7 6a 03 bd
       -0.088705 0.022051916 0.021491973 -0.032084133
000290 d0 ba b9 3d 4c fb e3 3d 43 7b 50 3d 33 00 4f bd
       0.09068835 0.111319155 0.0508988 -0.0505373
0002a0 bf 76 39 3e 05 9e 0d 3e 4e 69 c9 3d c9 f1 e0 bd
       0.18111704 0.13829811 0.098345384 -0.10983617
0002b0 54 32 b1 3b 46 01 d8 bd ca a4 bb 3c d6 e1 4c bd
       0.005407611 -0.10547118 0.022905726 -0.05002006
0002c0 34 64 31 bd 2b 0c 13 be a3 dc d5 bd 4a 14 82 bd
       -0.04330845 -0.1436011 -0.10442474 -0.06351526
0002d0 65 9b 36 3e 8e b7 6b bd 6f 42 e3 3d a1 ab 07 3e
       0.17832716 -0.0575481 0.110966556 0.13249065
0002e0 ef 3d dd 3c ec 6b 97 bd e3 65 56 3d 5a e0 3e bd
       0.027007071 -0.07393631 0.05234326 -0.046600677
0002f0 da 4f ec 3d ab cc e7 bc 57 cd c9 3c 12 13 97 bb
       0.11538668 -0.028295835 0.024634046 -0.0046104277
000300 67 f6 ef bd fc ef 53 3d 27 bf 0f 3e 62 59 11 bd
       -0.117169194 0.05174254 0.14037763 -0.035485633
000310 77 e7 b6 bd b8 94 ce 3d f3 d5 af bd fc 8d fa 3c
       -0.08930867 0.100869596 -0.085857294 0.030585282
000320 e7 53 29 3e 8c 32 31 bd ea 2a 12 3d c2 7c b7 bd
       0.16535912 -0.043261096 0.035685457 -0.089593425
000330 a1 a2 bf b9 1b 66 5d 3d df d9 9d bc c9 ba 3a 3d
       -0.00036551527 0.054052453 -0.019268928 0.04558829
000340 3f 09 20 3b 43 cd 0f 3e 73 ac f5 3c c7 b7 bf 3c
       0.0024419574 0.14043145 0.029989457 0.023403062
000350 b1 68 95 3d 74 f4 5d 3d cc 4a ac bd 75 fc 93 bd
       0.07295359 0.054188207 -0.08412704 -0.07225887
000360 a9 87 0f bc 6d b2 27 bd 1f 10 a5 bc 26 0d 5a 3d
       -0.008760371 -0.040941644 -0.020149289 0.053235196
000370 1e 8a 22 bd e3 9c 79 3d 95 d9 9d 3d 22 27 0e 3e
       -0.0396825 0.060940634 0.07707516 0.13882115
000380 d9 a0 09 3e c7 60 c0 bd 91 d4 62 bd ee 9f cd 3d
       0.13440265 -0.09393459 -0.0553785 0.1004027
000390 5f 25 6e 3d 0b 5d 7b 3c 2e 36 99 3c e0 2b d1 3d
       0.05814111 0.015342007 0.018702593 0.102134466
0003a0 6c 0d e2 3d 3b 97 d6 bc a9 6b 5a 3d 42 a3 b9 bd
       0.11037716 -0.02619516 0.05332533 -0.09064342
0003b0 ab de f9 bd d5 4a bc 3d b0 43 08 bd 0e 6c 9f bd
       -0.12200674 0.091939606 -0.033267677 -0.07784282
0003c0 bd 02 b9 3b 90 79 7b 3d 37 cd d2 bd 38 47 af bd
       0.0056460784 0.061395228 -0.10293048 -0.08558506
0003d0 af 97 83 bb e9 14 36 3d cf 01 9b 3c bc 06 75 3b
       -0.004015885 0.044453535 0.01892176 0.0037388047
0003e0 98 42 94 3d bf d5 7a ba b9 e2 98 bd 19 1d a7 3d
       0.07239264 -0.0009568594 -0.07465119 0.08159847
0003f0 96 2d 92 3d 5f e2 70 bd 8f 9c 03 3d a0 e3 14 3b
       0.07137601 -0.058809634 0.032131728 0.0022718683

bias f4 [63]
000000 72 7c dd bd 45 b9 30 bd ed 8d 8a 3e e0 70 67 bc
       -0.10814752 -0.043145437 0.27061406 -0.014126033
000010 4f 1a 6c 3e d9 54 2f 3d 0a fa a9 bd 49 08 e3 3c
       0.23056911 0.042805526 -0.08299644 0.027713912
000020 bf e2 ab bd 6e b8 44 3c 2f 7f 63 3c 8a ef 7a 3c
       -0.08392858 0.012006862 0.013885303 0.0153159
000030 77 b6 cc 3d 9e d2 08 be cc ef 96 bc fd a3 d2 bd
       0.0999574 -0.13361594 -0.018424891 -0.102851845
000040 38 4c e9 bd 67 b7 41 3e 67 18 d0 3d 79 f1 2d 3e
       -0.11391491 0.18917619 0.101609044 0.16986646
000050 61 80 d8 bc b8 46 4e 3d 12 e3 94 3d 32 c7 c0 bd
       -0.026428403 0.05036041 0.07269873 -0.094129935
000060 aa f8 89 3e 54 82 ea 3d cf 5c 5a bd a5 85 4d 3d
       0.26947528 0.11450639 -0.053311165 0.05017628
000070 df 50 6d 3d 28 36 cf bd 3c 40 1a 3e 20 0e 0b be
       0.057938453 -0.10117751 0.15063566 -0.13579607
000080 4b 54 d6 bd 1d 6d 59 3d f2 28 35 bd fa 24 85 3d
       -0.10465296 0.053082574 -0.0442285 0.06501193
000090 36 84 cc 3c c9 0f d3 bd f9 3d be bd 27 8a f8 bd
       0.024965387 -0.10305745 -0.09289164 -0.121357255
0000a0 30 30 54 bd a4 de b8 3c da e3 db bd 6b 20 70 3e
       -0.051803768 0.0225671 -0.107368186 0.23449866
0000b0 e6 62 15 bc 46 8d 29 bd 56 3e 8d bc 27 d9 98 bd
       -0.0091178175 -0.041394494 -0.017241638 -0.074632935
0000c0 ad c9 d2 bd 7e 91 cc 3c 68 2c 7e bd 8e f4 d3 3d
       -0.10292373 0.02497172 -0.062054068 0.103493795
0000d0 70 e6 4b 3e 9b 1d 01 be fb 0e f7 3c eb 31 28 bd
       0.19912124 -0.1260895 0.03015851 -0.04106323
0000e0 f5 4d 8a 3d 75 8b 43 3d 1c ce 3f 3c fd 53 8f bd
       0.067531504 0.04774042 0.011706855 -0.06998441
0000f0 3d ce aa 3b ca bf e8 bd fe d5 c8 bd
       0.005212574 -0.11364706 -0.09806441
