exercise4/racetrack_latest.pt (torch, 891415 bytes, 56 tensors)

weight f4 [64, 288]
0	0x3c88ffaa	0.016723473
1	0xbd03a9d5	-0.032144386
2	0xbd6d6099	-0.05795345
3	0xbcf62e07	-0.030051244
4	0xbcc314de	-0.023813661
5	0x3cb08b47	0.021550788
6	0xbbebff7d	-0.0072020874
7	0x3c2587b3	0.010103154
8	0x3cb9101e	0.022590693
9	0x3b5c8d71	0.0033653642
10	0x3d0a6644	0.033788934
11	0xbca49ff1	-0.020095797
12	0x3ced7ea7	0.028991057
13	0x3c9a55d2	0.01883975
14	0xbd1cb5c0	-0.038259268
15	0x3b60b7ec	0.0034289313
16	0x3d35ad15	0.044354517
17	0x3d34fe03	0.044187557
18	0x3cf44b9a	0.029821206
19	0x3d366c30	0.04453677
20	0xbc687af1	-0.014189468
21	0x3b65d827	0.0035071464
22	0x3c0eb5dd	0.008710352
23	0x3c0c3979	0.008558624
24	0xbd6f0d41	-0.05836225
25	0xbc2a89d4	-0.010408837
26	0x3c8090f2	0.015694115
27	0x3d58cc61	0.052929286
28	0x3d5a6f5b	0.053328853
29	0xbd47536f	-0.048663553
30	0x3cf286d6	0.02960531
31	0x3cb2979a	0.021800805
32	0x3cc4d7cc	0.024028681
33	0xbbfe772a	-0.0077656703
34	0x3bfe7484	0.0077653546
35	0x3b767581	0.003760666
36	0x3d2957ec	0.041343614
37	0x3d4cd582	0.050008304
38	0xbca130cc	-0.019676588
39	0x3bf7c136	0.0075608743
40	0xbd58e2ae	-0.052950554
41	0xbc30b490	-0.010785237
42	0x3ce17f9d	0.027526671
43	0x3d3f838d	0.046756316
44	0x3b4a281a	0.0030846656
45	0xbd4695da	-0.048482753
46	0xbcfe2b04	-0.03102637
47	0x3d2ae481	0.041721825
48	0x3ba305d6	0.004975061
49	0xbb55f5c8	-0.0032647718
50	0xbba31651	-0.0049770256
51	0x3cd2ef06	0.02574874
52	0x3d25f08d	0.04051261
53	0xbced0950	-0.028935105
54	0x3d0452c6	0.0323055
55	0xbcb64a70	-0.022252291
56	0x3cac1b69	0.021009164
57	0xbda3e12e	-0.08001934
58	0xbaa20dc6	-0.0012363724
59	0xbd10911b	-0.035294633
60	0xbc9c4971	-0.019077988
61	0xbd531e5a	-0.051542617
62	0xba344628	-0.0006876909
63	0xbbafa5f1	-0.005360358
64	0x3d4c9ea1	0.049955968
65	0x3bc9e088	0.0061607994
66	0x3cf48f7a	0.029853571
67	0x3d4fb016	0.050705038
68	0x3b834fa2	0.0040072957
69	0x3ca163b3	0.01970086
70	0x3d59dadf	0.053187247
71	0x3bb01304	0.0053733606
72	0x3c7b6749	0.015344449
73	0x3c209177	0.0098003065
74	0x3b0ebeaf	0.0021781137
75	0x3d688e66	0.056776427
76	0xbd6e6780	-0.058204174
77	0xbd3dd0ea	-0.046341814
78	0x3dd49eae	0.10381828
79	0x3cdd4065	0.027008245
80	0xbd971a32	-0.07378043
81	0x3bd0d1ce	0.006372667
82	0x3cfc6a39	0.03081237
83	0xbd10d03a	-0.03535483
84	0x3d0f8c7f	0.035046097
85	0x3cfa5fdf	0.030563293
86	0x3c2ee1f0	0.010673985
87	0x3d0797bb	0.033103686
88	0x3c2ede48	0.010673113
89	0xbd484e02	-0.04890252
90	0xbcfc6148	-0.030808106
91	0xbc08dbef	-0.0083532175
92	0xbbba42c2	-0.0056842277
93	0xbcb02e74	-0.021506526
94	0x3d55bd8e	0.052182727
95	0x3cb3127c	0.0218594
96	0x3c45308a	0.012035498
97	0x3d216ba0	0.03940928
98	0xbc87500f	-0.016517667
99	0x3d6f43de	0.058414333
100	0xbd77692a	-0.060403027
101	0xbd69e207	-0.057100322
102	0xbd67d933	-0.05660362
103	0xbd059b01	-0.032618526
104	0xbb81702d	-0.00395014
105	0x3d21917c	0.039445385
106	0xbd59a7d6	-0.053138576
107	0x3c796345	0.015221422
108	0x3d5e7ebd	0.054320086
109	0x3d1faf09	0.038985286
110	0xbd4d4ccb	-0.050122064
111	0xbc8fe616	-0.017565768
112	0x3c408421	0.011750252
113	0x3d5b7d1f	0.05358612
114	0x3c29b8c8	0.010358997
115	0x3b94f0d1	0.004545309
116	0x3bd77e79	0.006576356
117	0x3c85e5ad	0.01634487
118	0xbcb547a8	-0.022128895
119	0x3c601b22	0.013678344
120	0x3ccd62d3	0.025071537
121	0x3d324d1c	0.04353057
122	0xbd3ccd16	-0.046094023
123	0x3d3fbdfc	0.046812043
124	0xbcf8f3a3	-0.030389613
125	0xbd2b5612	-0.04183013
126	0x3d0e0735	0.034674842
127	0xbd0b0de4	-0.033948794
128	0xbc6dc906	-0.01451326
129	0xbd0a6b96	-0.03379401
130	0x3d4c7e09	0.049924884
131	0xbb161d79	-0.002290575
132	0xbd16809f	-0.036743756
133	0xbd067a4a	-0.032831468
134	0xbc9603fd	-0.018312449
135	0x3c874ede	0.016517099
136	0xbd126934	-0.03574486
137	0xbceaefaf	-0.028678743
138	0x3d24d2a1	0.040239934
139	0x3d115e5b	0.035490375
140	0xbc5f4dec	-0.013629418
141	0x3b8fce2b	0.004388591
142	0x3c8c6f98	0.017143056
143	0xbccb76f9	-0.024837004
144	0x3c961f41	0.01832545
145	0x3c7b6a9a	0.01534524
146	0x3d301d5b	0.042996746
147	0xbc1c5892	-0.009542601
148	0xba342078	-0.00068712933
149	0x3dcbdd87	0.09954362
150	0xbc9be7e3	-0.01903147
151	0x3d0b75d3	0.034047913
152	0x3c9bc1b0	0.019013256
153	0x3c1b04d7	0.009461603
154	0x3d1f1bd0	0.038844883
155	0x3cf92aa4	0.03041584
156	0x3c97b862	0.018520538
157	0xbd880335	-0.06641237
158	0xbb29fe45	-0.002593891
159	0xbd8c4f43	-0.068510555
160	0xbc155c39	-0.009116226
161	0x3cbed696	0.023295682
162	0xbdd13957	-0.10216015
163	0x3db7635f	0.089545004
164	0x3d334dd8	0.04377541
165	0xbbdc090f	-0.006714947
166	0xbd87a654	-0.066235214
167	0xbd18b5d7	-0.03728279
168	0xbba6aa9e	-0.005086257
169	0xbc8e576e	-0.017375674
170	0xbd0893dc	-0.033344135
171	0x3c854f8d	0.016273284
172	0x3c18b6d0	0.00932093
173	0x3e01607b	0.1263446
174	0x3da19f08	0.07891661
175	0xbd17ee5f	-0.037092563
176	0xbd834a23	-0.06410625
177	0xbd937687	-0.07200342
178	0x3c158376	0.009125581
179	0x3d0dca35	0.034616668
180	0x3d12a3c7	0.03580072
181	0xbd297904	-0.041375175
182	0x3caa45be	0.020785209
183	0x3d760ba0	0.06006968
184	0x3d614661	0.05499876
185	0x3d3d6d7a	0.046246983
186	0x3db7ef02	0.08981134
187	0x3e1cb445	0.15303142
188	0x3d31654f	0.043309506
189	0xbbc4ec78	-0.0060096346
190	0xbd976dd1	-0.07393993
191	0xbd9502a1	-0.07275892
192	0x3cc43760	0.023952186
193	0x3b3220a8	0.002718011
194	0x3cc239a7	0.023709131
195	0x3c03544b	0.0080157025
196	0x3c8dd590	0.017313749
197	0x3d4ceaeb	0.050028723
198	0x3d7b1210	0.061296523
199	0xbc66d4ea	-0.014088849
200	0xbc3e4558	-0.0116132125
201	0xbd94c725	-0.07264546
202	0xbd2e45e6	-0.04254713
203	0xbcfbad65	-0.03072233
204	0xbcfee149	-0.031113284
205	0xbc4376ce	-0.011930181
206	0x3d4c5be5	0.049892325
207	0x3cdf3ed1	0.027251633
208	0x3c4bbe89	0.012435564
209	0xbd5952d8	-0.05305752
210	0x3d71cf3e	0.059035532
211	0x3d3887b9	0.04505131
212	0x3d9805f2	0.07423009
213	0x3c473611	0.0121588865
214	0xbc0fcfc7	-0.008777565
215	0xbd0fb2dd	-0.035082687
216	0xbda12de1	-0.07870079
217	0x3d61a581	0.055089477
218	0x3cd4902f	0.025947658
219	0x3d681811	0.056663577
220	0x3d6e4871	0.058174554
221	0xbda2f73d	-0.07957313
222	0xbdf2c38a	-0.11853702
223	0xbd64bc77	-0.055843797
224	0xbdcb2331	-0.099188216
225	0xbd4cc9ef	-0.049997266
226	0xbde18e90	-0.1101352
227	0xbd99e4e4	-0.075143605
228	0xbcb27ea9	-0.021788912
229	0xbbf26667	-0.007397461
230	0x3da1550f	0.07877552
231	0x3d81a6c4	0.06330636
232	0x3c8e633b	0.017381301
233	0xbba4af1c	-0.0050257575
234	0xbd6ca9fb	-0.057779294
235	0xbdf12628	-0.11774856
236	0xbcf74337	-0.030183418
237	0xbe108b84	-0.14115721
238	0xbcc8bf37	-0.02450524
239	0xba3e0f03	-0.0007250162
240	0x3d91e23e	0.071232304
241	0xbd23fb97	-0.040034857
242	0x3cbd57a5	0.023113081
243	0xbc727830	-0.014799163
244	0x3da03069	0.078217335
245	0xbc4187c1	-0.011812151
246	0x3bd72572	0.006565743
247	0xbe058adc	-0.13041252
248	0xbcddb8ad	-0.0270656
249	0xbdb576ba	-0.08860536
250	0xbd47231a	-0.04861746
251	0x3d0ab78e	0.033866458
252	0xbd3ad49b	-0.045612913
253	0x3cc1c436	0.023653131
254	0xbc812806	-0.015766155
255	0x3d48f436	0.049061023

bias f4 [64]
0	0x3d013d42	0.03155256
1	0xbc4a9eaf	-0.012366935
2	0x3dc99b35	0.098440565
3	0xbd1e1171	-0.038590852
4	0x3db34177	0.08752721
5	0x3d6f607e	0.05844163
6	0x3c83db9e	0.016095933
7	0x3d46e526	0.048558377
8	0x3dca7a5a	0.09886618
9	0x3d14e021	0.03634656
10	0x3d38613c	0.045014605
11	0x3dcb1eaf	0.09917962
12	0x3dd5ec3d	0.104454495
13	0xbbae9734	-0.0053280834
14	0xbd54c537	-0.05194589
15	0x3d74ac75	0.05973478
16	0xbb1e2313	-0.0024129793
17	0x3da926b0	0.08259332
18	0x3d93e7ea	0.072219685
19	0xbc4663a5	-0.012108718
20	0xbcff5ade	-0.031171259
21	0x3d4adf03	0.049529087
22	0xbc1014b0	-0.008793995
23	0xbd0b3805	-0.03398897
24	0x3d93bf6c	0.07214245
25	0x3d35e477	0.044407334
26	0x3e01d3d2	0.1267846
27	0x3ced31f9	0.028954493
28	0x3d1c9480	0.038227558
29	0x3d80f5f5	0.062969126
30	0xbd477167	-0.048692133
31	0xbd1745a2	-0.03693164
32	0xbcdd9bad	-0.027051771
33	0x3dabd57c	0.08390328
34	0x3d49fd7e	0.049314015
35	0x3d432ab9	0.047648165
36	0x3d853bb8	0.06505531
37	0x3dd67ac2	0.10472633
38	0xbccf4920	-0.025303423
39	0x3d3b80af	0.04577702
40	0x3dd904aa	0.10596593
41	0xbc217604	-0.009854797
42	0x3d3d3c76	0.04620024
43	0xbd553294	-0.05205019
44	0x3d20f746	0.03929832
45	0xbd5d1969	-0.05397931
46	0x3cccf858	0.025020763
47	0x3d8b06e4	0.06788424
48	0x3d8faa30	0.070148826
49	0x3d96f571	0.07371033
50	0x3cd9028f	0.026490478
51	0x3dd792b7	0.105260305
52	0x3de70a60	0.11281276
53	0xba82fb92	-0.0009993187
54	0x3d4be0b5	0.049774844
55	0x3ca84cdb	0.02054446
56	0xbd1e2b01	-0.03861523
57	0xbd3e1d7c	-0.046414837
58	0x3dbf8778	0.093520105
59	0x3c0486fe	0.008088825
60	0xbbba55f9	-0.0056865183
61	0xbc0b4ddb	-0.008502449
62	0x3d428a5b	0.047495227
63	0x3bf44af7	0.0074552256

weight f4 [64, 64]
0	0x3cbe39dd	0.02322095
1	0x3deb6485	0.11493782
2	0xbd62e646	-0.055395387
3	0x3dfa17dc	0.12211582
4	0xbd6cf3e8	-0.057849795
5	0x3da70ce9	0.08156759
6	0xbd4b2f95	-0.049605925
7	0xbd26fe21	-0.0407697
8	0x3d2d9c57	0.042385425
9	0xbcea217e	-0.028580423
10	0x3c511ef2	0.012763726
11	0x3b345a32	0.002751958
12	0xbda8ce1b	-0.082424365
13	0xbdcf9508	-0.10135847
14	0x3ded4002	0.11584474
15	0xbbf15703	-0.007365109
16	0xbd8041ff	-0.06262588
17	0xbd1cdea8	-0.03829828
18	0xbcb18101	-0.02166796
19	0xbd8a4374	-0.06751147
20	0x3de10ee5	0.10989169
21	0xbdc57451	-0.09641326
22	0xbc6c1b33	-0.014410782
23	0xbdfdf4fa	-0.12400241
24	0x3c4bf585	0.012448673
25	0x3d339d59	0.04385123
26	0xbd5d3c81	-0.05401278
27	0xbd401f04	-0.04690458
28	0x3d88c0af	0.066773765
29	0x3cced9c9	0.025250332
30	0xbdbc77af	-0.09202515
31	0x3dc679fc	0.096912354
32	0xbd8b15ba	-0.067912534
33	0xbd305179	-0.04304645
34	0x3d3448b5	0.04401465
35	0xbd950610	-0.07276547
36	0x39d9dacc	0.00041552482
37	0xba986b40	-0.0011628643
38	0xbda70cff	-0.08156776
39	0x3cd35ccb	0.025801083
40	0xbd8d40cd	-0.068971254
41	0x3db82afe	0.08992575
42	0x3dfee2bb	0.12445589
43	0xbb133dae	-0.0022467184
44	0x3dcd103e	0.100128636
45	0x3dd95871	0.10612572
46	0xbdbf09a8	-0.09328014
47	0xbde70a70	-0.11281288
48	0xbdb98d60	-0.09060168
49	0x3dfd90b3	0.12381115
50	0x3d3d8657	0.046270695
51	0x3ca63dda	0.020293165
52	0xbdc9f3b3	-0.09860935
53	0x3d1e1836	0.038597308
54	0xbc9c6b32	-0.019094083
55	0xbdf811dd	-0.12112782
56	0x3c8675a1	0.016413512
57	0xbdbef173	-0.093233965
58	0xbde86937	-0.11348193
59	0x3cab0555	0.020876566
60	0x3dc75a77	0.09734052
61	0xbd8ceb15	-0.06880776
62	0xbddd7da9	-0.108149834
63	0x3d70f9da	0.058832027
64	0xbd6d2645	-0.057897825
65	0x3d52989e	0.05141508
66	0xbd8886cf	-0.06666338
67	0xbd5675eb	-0.05235855
68	0x3ca05257	0.019570513
69	0x3dcab843	0.098984264
70	0xbd5bad66	-0.053632163
71	0xbcdcb0ff	-0.026939867
72	0x3d8ad861	0.06779552
73	0xbcad0071	-0.021118375
74	0xbd727ba2	-0.059199937
75	0xbd046520	-0.032323003
76	0xbda5f9cb	-0.08104285
77	0x3de1f6a6	0.110333726
78	0xbcdc0aa0	-0.026860535
79	0x3d3a2ae3	0.045451056
80	0xbd896407	-0.06708532
81	0xbdf72885	-0.12068275
82	0x3db9671c	0.0905287
83	0x3daf232b	0.0855163
84	0x3d54b405	0.051929493
85	0x3d9754b5	0.073892035
86	0x3cf8291c	0.03029304
87	0xbd71a4f3	-0.0589952
88	0xbd0d4573	-0.03449006
89	0xbe07dd35	-0.13267978
90	0x3c441a92	0.0119692255
91	0x3d720949	0.059090886
92	0x3d6c9abf	0.057764765
93	0xbdc2782a	-0.09495576
94	0x3debb750	0.115095735
95	0xbdfefdaf	-0.1245073
96	0x3db9b2ad	0.09067283
97	0x3d26587f	0.04061174
98	0xbdf13907	-0.11778455
99	0x3cb598c0	0.022167563
100	0xbd9f8799	-0.07789535
101	0x3db28850	0.08717406
102	0x3de27653	0.11057725
103	0x3d26f3ab	0.040759724
104	0x3db6c95d	0.08925126
105	0xbdf70411	-0.120613225
106	0xbdbadeed	-0.09124551
107	0xbd802bf9	-0.06258387
108	0xbd3a9d89	-0.045560393
109	0x3dd98028	0.10620147
110	0x3df2c854	0.11854616
111	0x3dbedce0	0.09319472
112	0x3ca2c713	0.019870317
113	0x3d3cbd15	0.04607876
114	0xbe01dd2e	-0.1268203
115	0xbd800644	-0.06251195
116	0x3d723bce	0.059139065
117	0xbd9b5c07	-0.07585912
118	0x3c98f17c	0.018669836
119	0xbd476e5b	-0.048689228
120	0x3d268d97	0.040662374
121	0x3bd14f3a	0.0063876184
122	0x3dd1eaf4	0.10249892
123	0x3ddb764f	0.10715925
124	0xbdb38f38	-0.08767551
125	0x3dac27ab	0.084060036
126	0x3db4247e	0.08796023
127	0x3d89387e	0.06700228
128	0xbd1b457d	-0.037908066
129	0x3d007112	0.031357832
130	0xbbbc65df	-0.0057494487
131	0x3da2896e	0.07936369
132	0xbe0096d8	-0.12557542
133	0xbd9c5779	-0.076338716
134	0xbd8a74f5	-0.06760589
135	0xbc985f50	-0.018600136
136	0x3d477f4d	0.048705388
137	0x3cfb3766	0.030666064
138	0x3d0d09ef	0.0344333
139	0x3d63da5c	0.055628166
140	0x3d922dd6	0.07137649
141	0x3bf1c0d8	0.007377725
142	0x3daca26d	0.08429418
143	0x3d9a243c	0.075264424
144	0x3d5c8341	0.05383611
145	0x3ab84728	0.0014059292
146	0xbda4c143	-0.08044674
147	0x3d165bf7	0.0367088
148	0xbdb61853	-0.08891358
149	0x3ddb4903	0.10707285
150	0xbd821271	-0.06351174
151	0xbd94b4fa	-0.07261081
152	0xbced5d91	-0.02897528
153	0x3e2075bd	0.15669914
154	0xbd5f0ec6	-0.05445745
155	0xbd72e969	-0.05930463
156	0x3d3ef41d	0.046619523
157	0x3dbb60a4	0.09149292
158	0xbdc6de21	-0.097103365
159	0x3d1d5a16	0.03841599
160	0x3dc43710	0.09580815
161	0xbdaad6de	-0.08341764
162	0xbd94a0a2	-0.07257201
163	0xbd8a04e8	-0.06739217
164	0xbd220a44	-0.03956057
165	0xbcfea156	-0.03108279
166	0x3c318ba4	0.010836516
167	0xbd5e1c8c	-0.054226443
168	0xbced99b5	-0.029003957
169	0xbd5ca171	-0.0538649
170	0xbcd28307	-0.025697244
171	0xbd1e93bc	-0.03871511
172	0xbbe2db73	-0.006923133
173	0xbdf11014	-0.11770645
174	0x3d80dc08	0.06291968
175	0xbe06952d	-0.13142844
176	0xbcbae05a	-0.022812057
177	0x3d8acad9	0.06776971
178	0x3d907731	0.07053984
179	0xbd922045	-0.07135061
180	0xbd871c7c	-0.0659723
181	0xbd565802	-0.052330025
182	0xbdfdd4c8	-0.123941004
183	0xbd3ea8c2	-0.04654766
184	0x3d73d82b	0.059532326
185	0x3d8a2201	0.06744767
186	0xbd9c4b71	-0.07631577
187	0xbc26c207	-0.010178096
188	0xbdd6d395	-0.10489575
189	0x3c385887	0.011251575
190	0xbd6f0b71	-0.05836052
191	0x3c211b16	0.009833118
192	0x3df4888a	0.11940105
193	0x3db9cac0	0.090718746
194	0x3e5cd96f	0.2156732
195	0x3c8d7bd4	0.01727096
196	0xbcf607d0	-0.030033022
197	0x3e398bf2	0.18119791
198	0x3dd861b2	0.10565509
199	0x3e4aa8ec	0.19791001
200	0x3e47d1df	0.19513653
201	0xbabe1742	-0.0014502781
202	0xbda6ecf3	-0.08150663
203	0x3e45d695	0.19320138
204	0x3e25cce3	0.1619144
205	0x3dbd2cfb	0.09237095
206	0x3de341a8	0.11096507
207	0x3db78ae2	0.08962037
208	0xbd3e9624	-0.046529904
209	0x3e909a48	0.28242707
210	0x3e287502	0.16450885
211	0xbdcdcba3	-0.10048606
212	0x3da80d84	0.08205703
213	0x3e6b1462	0.22956994
214	0xbdfbd16a	-0.12295802
215	0x3de2dc02	0.110771194
216	0xbd462eb5	-0.048384387
217	0xbc2b3891	-0.010450498
218	0x3d18c0f1	0.03729338
219	0xbd8deec3	-0.06930306
220	0x3d2a272c	0.041541263
221	0xbc88626b	-0.016648492
222	0x3d4e97d0	0.05043775
223	0xbe04d31d	-0.12971158
224	0xbd43b64f	-0.047781285
225	0x3e146f53	0.14495592
226	0x3e55f29c	0.2089333
227	0x3e75c567	0.24001084
228	0xbc7a8059	-0.0152893895
229	0x3d61df0a	0.055144347
230	0x3dec7c5a	0.11547156
231	0xbce66346	-0.02812351
232	0x3e73716c	0.23773736
233	0x3b69696d	0.0035615817
234	0x3dc78887	0.097428374
235	0x3d595d90	0.053067744
236	0x3e1a65d6	0.1507791
237	0xbde2673f	-0.11054849
238	0x3d32ca8c	0.043650195
239	0x3dd43bb2	0.103629485
240	0x3e2ac54a	0.16676822
241	0xbc3bb8ee	-0.011457665
242	0xbd3c744e	-0.046009354
243	0x3e17381f	0.14767502
244	0x3e49df8e	0.19714186
245	0xbd7906e4	-0.060797587
246	0xbb49a2de	-0.0030767242
247	0xbb2afeae	-0.0026091742
248	0xbbd0259c	-0.0063521396
249	0x3d8be9fb	0.068317376
250	0x3cf0892b	0.029362282
251	0x3dca9b2e	0.098928794
252	0xbcb3dd27	-0.02195604
253	0x3d109e07	0.035306957
254	0x3d14c323	0.03631891
255	0x3deb0590	0.1147567

bias f4 [64]
0	0xbdf89cfc	-0.121393174
1	0x3df1c2dd	0.11804745
2	0x3e0f1955	0.13974507
3	0x3ccb64e8	0.02482839
4	0x3e019aa2	0.12656644
5	0x3d97e145	0.07416014
6	0xbdfbdc37	-0.12297862
7	0x3ddbc033	0.107300185
8	0xbd0bef9a	-0.03416405
9	0x3da71534	0.08158341
10	0x3d41fbed	0.047359396
11	0x3e380535	0.17970736
12	0x3e4f941b	0.20271342
13	0x3dcc9899	0.09990043
14	0x3d0b309a	0.033981897
15	0x3d5a2328	0.053256184
16	0xbdebb60f	-0.11509334
17	0xbdd7bdc8	-0.10534245
18	0x3db8fe44	0.09032872
19	0x3d30c5c6	0.04315736
20	0xbcf49e0c	-0.029860519
21	0x3e25553a	0.16145793
22	0xbdf17ddf	-0.11791586
23	0x3e36e2e2	0.17859986
24	0x3ccb88ca	0.0248455
25	0x3c90dfe3	0.017684883
26	0xbd1640ac	-0.03668277
27	0xbd8dc236	-0.069218084
28	0xbd80029b	-0.06250497
29	0xbd74f633	-0.059805106
30	0x3e69d5cf	0.22835468
31	0x3db53737	0.08848422
32	0x3db46f2b	0.08810266
33	0x3dffbac3	0.12486794
34	0x3d8366b3	0.06416073
35	0x3df45ec4	0.119321376
36	0x3e8d9a92	0.2765699
37	0x3d49e332	0.049288936
38	0x3dec4606	0.115367934
39	0xbdc266f2	-0.094922915
40	0xbdd77aae	-0.10521446
41	0x3d38c0a7	0.045105603
42	0x3e42ec34	0.19035417
43	0xbc27681a	-0.010217691
44	0xbbbb0eaf	-0.0057085375
45	0x3cc01294	0.023446359
46	0x3c70d9a8	0.014700331
47	0xbde855a6	-0.11344461
48	0xbcb19bde	-0.021680769
49	0x3d402255	0.04690774
50	0x3e0128b8	0.12613189
51	0xbd811e35	-0.0630459
52	0xbd5302de	-0.051516406
53	0x3c815821	0.015789093
54	0xbd4a5d79	-0.04940555
55	0x3e4faddb	0.20281164
56	0x3d328751	0.04358608
57	0x3dbf1266	0.09329681
58	0xbe0eb3d3	-0.13935785
59	0x3c96a4d4	0.018389143
60	0xbc43fc45	-0.011962001
61	0x3acd36ec	0.0015656627
62	0x3d0b64d2	0.034031697
63	0x3d8a9e69	0.067684956

weight f4 [64, 64]
0	0x3d30d4b2	0.043171592
1	0xbd4523e4	-0.04812993
2	0x3d9f2634	0.077709585
3	0xbe1125b7	-0.14174543
4	0xbd8c5c79	-0.06853575
5	0xbcefb4ec	-0.029261075
6	0xbdd51610	-0.10404599
7	0x3c658d18	0.01401069
8	0x3d896041	0.06707812
9	0x3e0ce363	0.13758616
10	0xbe01da45	-0.1268092
11	0x3dfc5514	0.12320915
12	0xbc2f1bc4	-0.010687772
13	0xbdfdc862	-0.123917356
14	0xbcf2e576	-0.029650431
15	0xbdc2e7cd	-0.09516869
16	0x3dd2df51	0.102965005
17	0xbd2d8ee0	-0.042372584
18	0x3e27062e	0.16310951
19	0x3dab2be9	0.083579846
20	0xbdd09e87	-0.10186487
21	0x3da0c043	0.07849171
22	0xbdfe50b7	-0.12417739
23	0x3e281bfa	0.16416922
24	0x3dc6ec33	0.0971302
25	0xbdc548c8	-0.096330225
26	0x3dbb4c09	0.09145362
27	0x3d3957dc	0.045249805
28	0x3ddb7d16	0.107172176
29	0x3dc01687	0.09379297
30	0x3e3b6c13	0.18302946
31	0x3d22ceb1	0.039747898
32	0x3e14d10d	0.14532872
33	0xbdaa3ae3	-0.08312013
34	0x3d4fa0a3	0.050690304
35	0xbe14777b	-0.14498703
36	0x3e01cf6c	0.12676781
37	0x3dd9ae48	0.10628945
38	0x3d5cdb48	0.05392006
39	0xbcc50269	-0.024049
40	0xbdcdd85b	-0.10051032
41	0x3dc6d859	0.09709234
42	0x3e3a245f	0.18177937
43	0xbd8319a1	-0.06401373
44	0xbd2b9e09	-0.04189876
45	0xbc64f6d4	-0.013974864
46	0xbd76a5a0	-0.060216546
47	0x3d86d46c	0.06583485
48	0x3d83f192	0.0644256
49	0xbc4d8c19	-0.012545609
50	0x3d8a2538	0.0674538
51	0x3d9449ab	0.072406135
52	0x3da54115	0.08069054
53	0x3d8628fe	0.065507874
54	0x3cb41572	0.021982882
55	0x3d07e2af	0.033175167
56	0x3e0bc977	0.13651071
57	0x3da2559a	0.079264835
58	0x3bc24b7a	0.0059294077
59	0x3daabd31	0.08336867
60	0x3d93d0b1	0.07217539
61	0xbe2a3850	-0.16623044
62	0xbdbe7a43	-0.09300663
63	0x3c1cb56d	0.00956474
64	0x3d990022	0.074707285
65	0x3de377b0	0.11106813
66	0x3da00b0f	0.07814609
67	0x3d976833	0.07392921
68	0x3c25fa72	0.010130512
69	0xbd70f2cf	-0.05882531
70	0x3d9da038	0.07696575
71	0x3d24b8b0	0.040215194
72	0x3de45872	0.11149682
73	0xbd40c1bf	-0.04705977
74	0xbdde296d	-0.10847745
75	0xbd874b61	-0.06606174
76	0x3d69f28e	0.057116084
77	0xbd92e5d9	-0.07172746
78	0x3a5c538e	0.00084047846
79	0x3da35efb	0.079771005
80	0x3d6b4bf0	0.057445467
81	0xbd12ee70	-0.035871923
82	0xbd401392	-0.046893664
83	0x3d3f5abb	0.046717387
84	0xbdf37157	-0.11886852
85	0xbd4796aa	-0.04872767
86	0x3cf18d70	0.029486388
87	0xbd953ff4	-0.07287589
88	0xbd8fa3d9	-0.07013673
89	0xbd4fcc8a	-0.050732173
90	0xbdce80e4	-0.10083178
91	0xbdba83e0	-0.091071844
92	0xbdd75284	-0.105137855
93	0x3d6abaa7	0.05730691
94	0xbcba3c0d	-0.022733713
95	0xbd26964f	-0.04067069
96	0xbd9dbb0e	-0.077016935
97	0xbbd07ea9	-0.0063627553
98	0x3d334e41	0.0437758
99	0xbd619ad6	-0.055079304
100	0xbc96f9a4	-0.018429585
101	0xbb4a11e5	-0.003083342
102	0x3c9a0e3d	0.018805617
103	0x3dc71068	0.09719926
104	0x3d79fc83	0.06103183
105	0xbd18d194	-0.037309244
106	0xbd4faa7b	-0.050699692
107	0x3bdc06d4	0.006714681
108	0x3d1f06a4	0.038824692
109	0x3d154f67	0.036452677
110	0xbb091170	-0.0020914935
111	0x3d881aa8	0.06645709
112	0xbdc917a2	-0.09818961
113	0x3cd52058	0.0260164
114	0x3aca3e72	0.0015429987
115	0xbbfd0d4b	-0.007722532
116	0x3dadb93a	0.08482595
117	0x3dde4a64	0.10854033
118	0x3ccea804	0.0252266
119	0x3d1e468e	0.038641505
120	0x3d69ad33	0.05704994
121	0xbda539a9	-0.080676384
122	0xbde8447e	-0.11341189
123	0x3cfd9dc4	0.030959018
124	0xbde8f5e8	-0.11375028
125	0xbd7fd681	-0.062460426
126	0xbdb58f02	-0.08865167
127	0x3dd176c6	0.10227732
128	0x3cefc120	0.029266894
129	0x3d9e80b4	0.07739392
130	0x3d53b547	0.05168655
131	0xbde5d3b2	-0.11222018
132	0x3dcf9db2	0.101375
133	0x3c4794c0	0.012181461
134	0xbc75e1e0	-0.015007466
135	0x3b255256	0.0025226078
136	0xbd11b34a	-0.035571374
137	0x3d95f197	0.0732147
138	0xbda9550e	-0.08268176
139	0xbde70b12	-0.11281408
140	0xbd783956	-0.060601555
141	0xbdfa2d7d	-0.122157075
142	0xbcb71674	-0.022349574
143	0x3def5a1b	0.11687108
144	0x3d818d56	0.06325786
145	0x3da49290	0.08035767
146	0xbdf15498	-0.11783713
147	0x3dcc87f3	0.09986868
148	0x3dda4924	0.10658482
149	0xbb27961b	-0.0025571648
150	0xbd0d0c3d	-0.0344355
151	0x3d1e7b69	0.03869191
152	0x3d49d5b6	0.049276076
153	0xbb93a13f	-0.004505306
154	0xbdf2e58c	-0.11860189
155	0x3d9bfb7f	0.076163284
156	0x3d4d45ff	0.05011558
157	0x3c9b098d	0.018925453
158	0x3e002810	0.12515283
159	0xbdcbaa8d	-0.09944639
160	0x3d8b2e27	0.06795912
161	0xbde6abed	-0.11263261
162	0xbdcc0c04	-0.09963229
163	0x3da52555	0.08063761
164	0x3e051145	0.12994869
165	0xbc3a292d	-0.011362356
166	0x3d8d77af	0.069075935
167	0xbd904cff	-0.07045936
168	0x3c1103ef	0.0088510355
169	0x3de9c5e2	0.11414696
170	0x3d50abeb	0.050945204
171	0xbdc922ce	-0.098210916
172	0x3d8e24a5	0.06940583
173	0xbde58c5f	-0.11208414
174	0xbde50a4a	-0.11183603
175	0xbcf1ae50	-0.029502064
176	0xbd64e7dc	-0.05588518
177	0x3d76d4d3	0.06026156
178	0x3df5d49c	0.12003443
179	0x3cedbe67	0.029021455
180	0x3d00c3d0	0.03143674
181	0x3dae5074	0.08511439
182	0x3d025367	0.03181782
183	0xbc007a03	-0.00784159
184	0x3de13f2c	0.10998377
185	0x3d5333c7	0.05156305
186	0xbd8e330f	-0.069433324
187	0xbbb6d1e5	-0.0055792206
188	0x3b7f8043	0.0038986362
189	0x3da5559b	0.080729686
190	0x3da7f7ba	0.08201547
191	0x3dc3cca4	0.095605165
192	0xba94b7bc	-0.0011346261
193	0xbddf55bf	-0.10905027
194	0xbd674f4e	-0.056472115
195	0x3cc1db39	0.023664104
196	0xbd95ae45	-0.0730863
197	0xbdd6833c	-0.1047425
198	0x3dc18afc	0.09450337
199	0x3c8c0b25	0.017095158
200	0x3cca0fad	0.024665678
201	0x3d249dbe	0.040189497
202	0xbdb41ad1	-0.08794177
203	0xbce97e91	-0.028502734
204	0x3db571f3	0.08859625
205	0xbd024b0a	-0.031809844
206	0x3dbbd33e	0.091711506
207	0xbdc66a06	-0.09688191
208	0x3c70b8a8	0.014692463
209	0xbdf52e0d	-0.11971674
210	0xbcb359aa	-0.021893341
211	0xbdde8129	-0.10864479
212	0x3d877fbf	0.066161625
213	0x3d80d452	0.06290497
214	0xbd4a8476	-0.04944273
215	0x3de1fc90	0.110345006
216	0xbdbe1fcc	-0.092834085
217	0xbd50c067	-0.05096474
218	0xbdd7621d	-0.105167605
219	0xbd944ac9	-0.07240827
220	0xbdf9fcc2	-0.12206413
221	0x3d044574	0.0322928
222	0x3cda623b	0.026658168
223	0xbbdb7618	-0.0066974275
224	0x3d14a05f	0.036285754
225	0x3cd8689e	0.026417073
226	0x3dc2eeba	0.0951819
227	0xbca586df	-0.020205913
228	0xbd613850	-0.054985344
229	0xbc76a1b9	-0.015053206
230	0xbd7a5b32	-0.061122127
231	0xbd893fcf	-0.06701624
232	0x3da30a1d	0.07960913
233	0xbcb76fea	-0.022392232
234	0x3d14ae4e	0.036299042
235	0xbbee17d5	-0.0072660246
236	0x3d778209	0.060426746
237	0xbdbb3f94	-0.09142986
238	0x3cc7ac13	0.024374044
239	0x3de8e6f6	0.11372177
240	0x3d8a3ea4	0.06750229
241	0xbcc93498	-0.024561211
242	0x3d8c5885	0.06852821
243	0x3c2f6035	0.01070409
244	0x3d85dd07	0.06536298
245	0x3db61761	0.08891178
246	0x3def91d3	0.11697736
247	0xbdfd305a	-0.12362738
248	0x3deccc92	0.11562456
249	0x3dd96f7c	0.10616967
250	0x3d806c9b	0.06270715
251	0xbb8b1853	-0.004244843
252	0x3d2c7e83	0.04211284
253	0xbdeb82e2	-0.11499573
254	0xbc869b71	-0.016431542
255	0x3d02b3db	0.031909805

bias f4 [64]
0	0x3dded101	0.10879708
1	0xbd566a86	-0.052347682
2	0xbd4ace83	-0.04951335
3	0xbd548473	-0.051884126
4	0x3c554b75	0.013018479
5	0x3d8856df	0.06657194
6	0xbc8155d0	-0.015787989
7	0x3e174349	0.14771761
8	0x3e14c723	0.1452909
9	0x3e97426f	0.29542872
10	0x3de7e458	0.1132285
11	0x3e8d23a4	0.27566254
12	0x3e4049c9	0.18778147
13	0xbd868b1f	-0.06569504
14	0x3dda1e0a	0.10650261
15	0x3e67e705	0.2264672
16	0xbdbea23a	-0.09308286
17	0x3e4006c0	0.18752575
18	0x3e405824	0.18783623
19	0xbd864801	-0.065567024
20	0xbd985b30	-0.07439268
21	0xbd4a775c	-0.049430236
22	0x3e22be9e	0.15893027
23	0x3dba38f1	0.09092892
24	0x3e0c5fd4	0.1370843
25	0x3dcb9e43	0.099422954
26	0xbe038785	-0.12844665
27	0x3e122d3d	0.1427507
28	0xbd61b36a	-0.055102743
29	0x3de2cbd0	0.110740304
30	0xbbf2f037	-0.0074138897
31	0x3e10e32f	0.14149164
32	0x3e732c13	0.23747282
33	0x3e25f788	0.16207707
34	0x3c8294f5	0.015940169
35	0xbdd99eda	-0.10626002
36	0xbd47c6aa	-0.048773445
37	0xbdf03f3d	-0.11730812
38	0x3e27d1b6	0.16388592
39	0xbd26818a	-0.04065088
40	0x395fedc7	0.00021355516
41	0xbc5e9856	-0.013586124
42	0xbcc22dd1	-0.023703488
43	0x3e525462	0.20540002
44	0x3e20047a	0.15626708
45	0xbda66560	-0.081248045
46	0x3e0740c5	0.13208301
47	0xbd9aa5c9	-0.07551152
48	0xbd8bd0d0	-0.06826937
49	0xbde155f0	-0.110027194
50	0x3ded5061	0.11587597
51	0x3d8487cc	0.06471214
52	0xbdff1244	-0.12454656
53	0xbdc2ed4a	-0.095179155
54	0x3e043e23	0.12914328
55	0xbcb31c10	-0.021863967
56	0x3e48e512	0.19618633
57	0xbd54a476	-0.051914655
58	0x3d9a5014	0.07534805
59	0xbda7364a	-0.08164652
60	0x3e22c214	0.15894347
61	0x3d7d9792	0.061912127
62	0x3c3bb958	0.011457764
63	0xbdc57ffe	-0.09643553

weight f4 [1, 64]
0	0x3ea7b6f9	0.32756785
1	0x3ddab2f1	0.106786616
2	0x3d04baf7	0.032404866
3	0x3d8e368f	0.06944
4	0xbcba0357	-0.02270667
5	0x3dbde90b	0.09272965
6	0xbd404154	-0.0469373
7	0x3eaf61f1	0.3425441
8	0xbe1f5756	-0.1556066
9	0x3ed9e5e8	0.42558217
10	0xbe3ceab1	-0.18448903
11	0x3ec49390	0.3839383
12	0x3e903910	0.28168535
13	0x3cb2b57a	0.02181505
14	0xbe2f05b8	-0.17092025
15	0x3e979d3b	0.29612145
16	0x3ce213f6	0.027597409
17	0x3e6c5646	0.23079786
18	0x3e6564dc	0.22401756
19	0xbd53d80d	-0.051719714
20	0x3d7f8b45	0.062388677
21	0xbe42b7a3	-0.19015364
22	0xbe00eb5a	-0.1258978
23	0xbe1f4309	-0.15552916
24	0x3ec9b000	0.3939209
25	0xbe3f3513	-0.1867259
26	0xbdbdf46f	-0.09275138
27	0x3e5b5f92	0.21423176
28	0x3d94fb3a	0.0727448
29	0x3e12466b	0.14284675
30	0x3de2c807	0.110733084
31	0x3e0d2698	0.13784254
32	0x3eed8273	0.46388587
33	0xbe820622	-0.25395304
34	0xbdb81ce5	-0.08989886
35	0xbda6f9ba	-0.081531
36	0xbde62026	-0.112366006
37	0x3d4a22e7	0.04934969
38	0x3e75c20b	0.23999803
39	0xbdd60aaf	-0.104512565
40	0x3a8a52f1	0.0010553283
41	0x3d755109	0.059891734
42	0xbe831ee8	-0.25609517
43	0x3ed42bd4	0.41439688
44	0x3e1b5970	0.15170836
45	0xbdbe70fc	-0.09298894
46	0xbe5bdba2	-0.21470502
47	0xbd8b4050	-0.06799376
48	0x3cbc8162	0.023010913
49	0xbddc8bea	-0.10768874
50	0x3e429b43	0.1900454
51	0x3e98aa33	0.29817352
52	0xbb5e6100	-0.0033932328
53	0xbddac37e	-0.106818184
54	0x3e66f374	0.22553807
55	0xbc86fb28	-0.016477183
56	0x3ecbd3d1	0.3981004
57	0xbda81d04	-0.08208659
58	0xbe3baae9	-0.18326916
59	0xbd080fdb	-0.033218246
60	0xbe6339e2	-0.2219005
61	0xbe519423	-0.20466666
62	0xbe3a15c6	-0.18172368
63	0x3dd1e525	0.10248784

weight f4 [64, 288]
0	0x3c8c5f9f	0.01713544
1	0xbd03c5f7	-0.032171216
2	0xbd6d6251	-0.05795509
3	0xbcf639a4	-0.030056782
4	0xbcce1d80	-0.025160551
5	0x3caefea7	0.021361662
6	0xbc0635ac	-0.008191507
7	0x3c28f00c	0.010311138
8	0x3cc970d6	0.024589937
9	0x3b51f4fc	0.0032036891
10	0x3d0d6f06	0.03452971
11	0xbca83955	-0.02053515
12	0x3cf18502	0.029482368
13	0x3c99bbd0	0.018766314
14	0xbd197679	-0.0374665
15	0x3b60b7d2	0.0034289253
16	0x3d35ad15	0.044354517
17	0x3d34fda9	0.04418722
18	0x3cf44c4b	0.029821536
19	0x3d366cf3	0.044537496
20	0xbc5f1a9e	-0.013617186
21	0x3b6066f6	0.0034241057
22	0x3c3dd847	0.011587209
23	0x3c0b1b98	0.008490466
24	0xbd6e4ada	-0.058176853
25	0xbc2c8794	-0.010530371
26	0x3c80a143	0.015701896
27	0x3d58cc61	0.052929286
28	0x3d5a6f5b	0.053328853
29	0xbd47536f	-0.048663553
30	0x3cf286d6	0.02960531
31	0x3cb37a76	0.02190898
32	0x3ccb6eae	0.02483305
33	0xbbf9a008	-0.007617954
34	0x3bfcc0a5	0.0077133947
35	0x3b7c9219	0.003853923
36	0x3d2a0053	0.041504215
37	0x3d48de6b	0.04904024
38	0xbc9879e6	-0.018612813
39	0x3bf7bb57	0.0075601744
40	0xbd58e2ae	-0.052950554
41	0xbc30b490	-0.010785237
42	0x3ce12c49	0.027486937
43	0x3d3f8300	0.04675579
44	0x3b825c8b	0.003978317
45	0xbd4683e2	-0.048465617
46	0xbcfb5c45	-0.030683646
47	0x3d2aeacf	0.041727837
48	0x3ba4209c	0.00500877
49	0xbb5efb5a	-0.003402433
50	0xbba316e0	-0.004977092
51	0x3cd2ef06	0.02574874
52	0x3d260c10	0.040538847
53	0xbced09ca	-0.028935332
54	0x3d001b41	0.03127599
55	0xbcb058d0	-0.021526724
56	0x3cac2434	0.021013357
57	0xbd9f3dc6	-0.07775454
58	0xbaa1963e	-0.0012328101
59	0xbd108fbc	-0.035293326
60	0xbc9c2bf2	-0.019063924
61	0xbd544de0	-0.05183208
62	0xba346e65	-0.0006882905
63	0xbbafee92	-0.005369016
64	0x3d4c9ea1	0.049955968
65	0x3bc9e088	0.0061607994
66	0x3cf48f7c	0.029853575
67	0x3d505b76	0.050868474
68	0x3baaf07e	0.005216657
69	0x3ca535cb	0.020167252
70	0x3d59dcb4	0.053188995
71	0x3bac0489	0.005249564
72	0x3c7428fd	0.0149023505
73	0x3c214258	0.009842478
74	0x3af31116	0.0018544521
75	0x3d688d34	0.056775287
76	0xbd6e6780	-0.058204174
77	0xbd3dd0ea	-0.046341814
78	0x3dd41e53	0.103573464
79	0x3cdd18f4	0.026989438
80	0xbd8cd36a	-0.068762615
81	0x3bd05f47	0.006359014
82	0x3cfc5799	0.030803489
83	0xbd105d40	-0.03524518
84	0x3d13a159	0.036042545
85	0x3cfa4c74	0.030554034
86	0x3c2d0410	0.010560051
87	0x3d079d33	0.0331089
88	0x3c2f308e	0.010692729
89	0xbd486070	-0.048920095
90	0xbcfc3cd1	-0.030790718
91	0xbc08f6e5	-0.0083596455
92	0xbbba5027	-0.0056858244
93	0xbcae53eb	-0.02128025
94	0x3d55428f	0.05206543
95	0x3cb311d8	0.021859095
96	0x3c517c13	0.012785929
97	0x3d219c53	0.039455723
98	0xbc87525d	-0.016518766
99	0x3d6f00e2	0.05835045
100	0xbd73a9d4	-0.059488133
101	0xbd6a49bf	-0.057199236
102	0xbd64d306	-0.05586531
103	0xbd059ac5	-0.032618303
104	0xbb8139de	-0.003943666
105	0x3d216e87	0.039412048
106	0xbd56aa15	-0.052408297
107	0x3c796366	0.015221452
108	0x3d5cadbe	0.05387663
109	0x3d1d9ffe	0.03848266
110	0xbd4a0e22	-0.049329884
111	0xbc8fe6b4	-0.017566063
112	0x3c555220	0.013020068
113	0x3d5f9ed3	0.054594826
114	0x3c2bb202	0.010479452
115	0x3b94fb4c	0.0045465585
116	0x3bdbe4d9	0.0067106304
117	0x3c86752d	0.016413296
118	0xbcb5cd4c	-0.02219262
119	0x3c616f3d	0.013759431
120	0x3ccd6846	0.025074136
121	0x3d2f0b03	0.04273511
122	0xbd3cd029	-0.046096954
123	0x3d3f44b4	0.04669638
124	0xbcf925e3	-0.030413574
125	0xbd2b49b6	-0.041818343
126	0x3d0d5206	0.03450205
127	0xbd0aeaf0	-0.03391546
128	0xbc6d0b9d	-0.014468101
129	0xbd096179	-0.033540223
130	0x3d4c76e9	0.04991809
131	0xbb43b14f	-0.0029860323
132	0xbd167f81	-0.03674269
133	0xbd061487	-0.03273442
134	0xbc960a4a	-0.018315453
135	0x3c889977	0.01667474
136	0xbd127fa7	-0.03576627
137	0xbcf119a3	-0.02943117
138	0x3d20d915	0.039269526
139	0x3d112a8c	0.035440966
140	0xbc5daf9a	-0.013530636
141	0x3b970590	0.0046088174
142	0x3c9e7d5f	0.019346891
143	0xbccb268a	-0.02479865
144	0x3c8a9f43	0.016921645
145	0x3be95fc5	0.0071220123
146	0x3d49154a	0.04909257
147	0xbc2c0220	-0.0104985535
148	0x38b741b2	8.738357e-05
149	0x3dc425e0	0.095775366
150	0xbc9b0238	-0.018921956
151	0x3d1d11f5	0.038347203
152	0x3c8a8b19	0.01691203
153	0x3bf4ded3	0.007472852
154	0x3d0c486e	0.03424876
155	0x3ccbd131	0.024880024
156	0x3cda6056	0.026657265
157	0xbd6c6b0b	-0.05771927
158	0xbb281a5e	-0.0025650482
159	0xbd876efa	-0.06612964
160	0xbb825751	-0.003977694
161	0x3c71f0bf	0.014766871
162	0xbdc0b60f	-0.09409725
163	0x3dc4fb14	0.09618202
164	0x3d5b62c9	0.053561006
165	0xbc3ea8cc	-0.011636924
166	0xbd842883	-0.064530395
167	0xbd2d9da0	-0.04238665
168	0xbc112515	-0.008858939
169	0xbc49156a	-0.012273172
170	0xbd114606	-0.03546717
171	0x3c98fefb	0.018676272
172	0x3c1377be	0.009000717
173	0x3e061d64	0.13097149
174	0x3da07f60	0.07836795
175	0xbd0e9537	-0.03481027
176	0xbd82825a	-0.06372519
177	0xbd8cad78	-0.06869024
178	0x3c3facdb	0.011698927
179	0x3d1ddb36	0.038539134
180	0x3d123b02	0.035700805
181	0xbd1e981d	-0.038719285
182	0x3cf88ee1	0.030341567
183	0x3d718335	0.05896302
184	0x3d3f837f	0.046756264
185	0x3d314f4a	0.043288507
186	0x3dbd1cfb	0.09234043
187	0x3e1dadf7	0.15398394
188	0x3d2b4635	0.041815
189	0xbaafb149	-0.0013404276
190	0xbda03052	-0.07821716
191	0xbd851cfa	-0.064996675
192	0x3cbe6291	0.02324036
193	0x3c6d4ec2	0.014484109
194	0x3cb1049a	0.02160864
195	0x3c729013	0.014804858
196	0x3c3d79e8	0.011564709
197	0x3d56e738	0.0524666
198	0x3d7dbdf3	0.061948728
199	0xbc72e282	-0.0148245115
200	0xbbfd1f1f	-0.007724657
201	0xbd94d0ae	-0.07266365
202	0xbd2d72b5	-0.04234572
203	0xbce4a218	-0.027909324
204	0xbd059d58	-0.032620758
205	0xbb3ae83e	-0.0028519775
206	0x3d49b914	0.04924877
207	0x3d12b540	0.035817385
208	0x3c61b8cb	0.013776968
209	0xbd66db44	-0.05636145
210	0x3d72a43a	0.05923865
211	0x3d1cfd54	0.03832753
212	0x3d8f1274	0.069859415
213	0x3c208d7f	0.00979936
214	0xbc40748f	-0.01174654
215	0xbd0c4564	-0.034245864
216	0xbd9753c3	-0.07389023
217	0x3d72f26e	0.05931323
218	0x3d092fcf	0.03349286
219	0x3d6e21be	0.058137648
220	0x3d654fa2	0.055984147
221	0xbd98c18b	-0.074587904
222	0xbde792bd	-0.11307285
223	0xbd4d8dbf	-0.050184008
224	0xbdb5349c	-0.08847925
225	0xbd5c8b14	-0.053843573
226	0xbdda309b	-0.10653802
227	0xbd9caaa3	-0.07649734
228	0xbca08fe4	-0.019599862
229	0xbbd805ec	-0.006592503
230	0x3d9dffde	0.077148184
231	0x3d8c9f0c	0.06866273
232	0x3cbfee41	0.023429038
233	0xbb61e7bc	-0.00344704
234	0xbd4ea50a	-0.050450362
235	0xbde68cb8	-0.11257309
236	0xbcdc6921	-0.026905598
237	0xbe0e58d4	-0.13901073
238	0xbcdfa5bf	-0.027300714
239	0xbb547a45	-0.003242151
240	0x3d9ba27c	0.07599351
241	0xbcf7ab36	-0.030233007
242	0x3cdb042c	0.026735388
243	0xbc48e358	-0.012261234
244	0x3d9cfddb	0.076656066
245	0xbb97bb89	-0.00463051
246	0x3c5b57ad	0.013387603
247	0xbe02e4ec	-0.1278264
248	0xbcab6144	-0.020920403
249	0xbda6fc42	-0.08153583
250	0xbd5260a8	-0.05136171
251	0x3cf6dfbb	0.03013598
252	0xbd1ecadd	-0.038767684
253	0x3ce8b0ed	0.028404677
254	0xbc28992f	-0.010290428
255	0x3d616b85	0.05503418

bias f4 [64]
0	0x3d003c8b	0.03130774
1	0xbc376f15	-0.011195918
2	0x3dc93cfe	0.098260865
3	0xbd1e3977	-0.03862902
4	0x3da4d0e1	0.08047653
5	0x3d69325b	0.05693279
6	0x3c928e55	0.017890135
7	0x3d3a2119	0.04544172
8	0x3dc6013a	0.09668203
9	0x3d08c9d8	0.03339562
10	0x3d40590c	0.04695992
11	0x3dbf01da	0.09326525
12	0x3dd0b773	0.1019124
13	0xbba8c18a	-0.005150025
14	0xbd551295	-0.052019674
15	0x3d6df423	0.058094155
16	0x39384328	0.00017572625
17	0x3da2b36e	0.0794438
18	0x3d8eccf0	0.069726825
19	0xbc6bf594	-0.014401812
20	0xbcd37546	-0.025812756
21	0x3d3f3302	0.046679504
22	0xbc26587c	-0.010152932
23	0xbd002c92	-0.031292506
24	0x3d933bf5	0.0718917
25	0x3d3ebfb7	0.046569552
26	0x3e006dcb	0.12541883
27	0x3ce68f1a	0.028144408
28	0x3d0f4b51	0.034983937
29	0x3d7c6572	0.061620183
30	0xbd45b24d	-0.048265744
31	0xbd186f27	-0.037215378
32	0xbd01ac98	-0.03165874
33	0x3da10adf	0.078634016
34	0x3d40a69b	0.047033887
35	0x3d38c1ac	0.045106575
36	0x3d814994	0.06312862
37	0x3dd6cf06	0.10488705
38	0xbcb4d837	-0.022075756
39	0x3d48f9ae	0.049066238
40	0x3dd537f9	0.104110666
41	0xbc1a318c	-0.009411227
42	0x3d33594c	0.043786332
43	0xbd5a1979	-0.05324695
44	0x3d1e8045	0.038696546
45	0xbd699831	-0.057029907
46	0x3ca8242d	0.020525062
47	0x3d834ae2	0.06410767
48	0x3d8cace2	0.06868912
49	0x3d957d51	0.07299293
50	0x3ceb6547	0.028734816
51	0x3dd43427	0.1036151
52	0x3dde2570	0.108469844
53	0xba3cf2c4	-0.0007207806
54	0x3d39c2bc	0.04535173
55	0x3c95b8d1	0.018276604
56	0xbd1fbe93	-0.039000105
57	0xbd43a4c5	-0.04776456
58	0x3dbc2bfd	0.091880776
59	0x3b3d8962	0.0028920998
60	0xbbbea768	-0.005818296
61	0xbbf0b067	-0.0073452475
62	0x3d4229da	0.047403194
63	0x3c2445e2	0.010026427

weight f4 [64, 64]
0	0x3cbe333f	0.023217795
1	0x3deb62de	0.11493467
2	0xbd62f6e2	-0.055411227
3	0x3dfa17e4	0.12211588
4	0xbd6cf49a	-0.057850458
5	0x3da6e14d	0.081484415
6	0xbd4b3073	-0.04960675
7	0xbd2713ba	-0.040790297
8	0x3d2d8a2f	0.04236811
9	0xbcea22b5	-0.028581003
10	0x3c4f3316	0.012646457
11	0x3b31af9e	0.0027112733
12	0xbda8e440	-0.0824666
13	0xbdcf95d8	-0.10136002
14	0x3ded3f60	0.115843534
15	0xbbf1a79e	-0.007374718
16	0xbd804380	-0.062628746
17	0xbd1ce482	-0.03830386
18	0xbcb1e42a	-0.021715242
19	0xbd8a437c	-0.06751153
20	0x3de10df8	0.109889925
21	0xbdc57aa8	-0.096425354
22	0xbc6c2224	-0.014412437
23	0xbdfdf5bb	-0.12400385
24	0x3c4b6268	0.012413599
25	0x3d32ee49	0.043684278
26	0xbd5d5d04	-0.054043785
27	0xbd401f40	-0.046904802
28	0x3d88c03d	0.066772915
29	0x3cce8885	0.025211582
30	0xbdbc7817	-0.09202593
31	0x3dc665a0	0.09687352
32	0xbd8b198c	-0.06791982
33	0xbd306a29	-0.043069992
34	0x3d34095d	0.043954242
35	0xbd9506d6	-0.072766945
36	0x39d8ffb7	0.00041389253
37	0xba9d70ba	-0.0012011745
38	0xbda70e69	-0.081570454
39	0x3cd2ec85	0.025747547
40	0xbd8d59ba	-0.069018796
41	0x3db82572	0.08991517
42	0x3dfedaa2	0.12444045
43	0xbb135aa7	-0.0022484453
44	0x3dccf75d	0.10008118
45	0x3dd957cc	0.10612449
46	0xbdbf0a2b	-0.09328111
47	0xbde70b2a	-0.11281426
48	0xbdb99ef2	-0.090635195
49	0x3dfd883c	0.123795
50	0x3d3d2c3d	0.046184767
51	0x3ca5d676	0.020243865
52	0xbdca0903	-0.09865
53	0x3d1e1786	0.038596652
54	0xbc9c6b65	-0.019094178
55	0xbdf81242	-0.121128574
56	0x3c8674c3	0.016413098
57	0xbdbef1af	-0.09323441
58	0xbde873b3	-0.11350193
59	0x3cab00e2	0.020874444
60	0x3dc75a09	0.0973397
61	0xbd8cec94	-0.06881061
62	0xbddd7d76	-0.108149454
63	0x3d70f93b	0.058831435
64	0xbd6bfb93	-0.057612967
65	0x3d5247f7	0.051338162
66	0xbd876d37	-0.06612628
67	0xbd567fbc	-0.05236791
68	0x3ca26358	0.019822761
69	0x3dcca7d7	0.099929504
70	0xbd5bac59	-0.05363116
71	0xbcdc52aa	-0.026894886
72	0x3d8b90c0	0.06814718
73	0xbcaebc64	-0.021330066
74	0xbd700aed	-0.05860417
75	0xbd06c3af	-0.032901462
76	0xbda49694	-0.08036533
77	0x3de1bc5b	0.11022254
78	0xbcdc3b77	-0.026883824
79	0x3d3a8f45	0.04554679
80	0xbd89cd45	-0.06728605
81	0xbdf72015	-0.12066666
82	0x3dbbca82	0.09169485
83	0x3daf2085	0.085511245
84	0x3d538443	0.051639806
85	0x3d983ab4	0.07433072
86	0x3cfbe8aa	0.030750591
87	0xbd727b0e	-0.059199385
88	0xbd0bacf2	-0.03410048
89	0xbe06a363	-0.13148265
90	0x3c46a353	0.0121239005
91	0x3d73a14e	0.059480004
92	0x3d6c6388	0.057712108
93	0xbdc15ade	-0.0944116
94	0x3debf2f5	0.1152095
95	0xbdfed653	-0.12443223
96	0x3db977f1	0.0905608
97	0x3d2651ec	0.04060547
98	0xbdf08060	-0.117432356
99	0x3cb93e46	0.022612702
100	0xbd9f7984	-0.07786849
101	0x3db3c21f	0.0877726
102	0x3de3a1da	0.11114855
103	0x3d28bd57	0.041196194
104	0x3db95ccb	0.09050902
105	0xbdf71233	-0.12064018
106	0xbdbad6a7	-0.09122973
107	0xbd800b0a	-0.062521055
108	0xbd37cb38	-0.04487154
109	0x3dd9ce01	0.10634995
110	0x3df32f20	0.11874223
111	0x3dbeb525	0.09311894
112	0x3cae0fa2	0.021247689
113	0x3d3c579a	0.04598198
114	0xbe011a1d	-0.12607618
115	0xbd7d6c86	-0.061871074
116	0x3d736535	0.05942269
117	0xbd9bd82c	-0.07609591
118	0x3c98e0de	0.018661913
119	0xbd476e33	-0.04868908
120	0x3d270538	0.04077646
121	0x3bca0b74	0.006165916
122	0x3dd2c7d5	0.10292021
123	0x3ddacece	0.10683976
124	0xbdb3c251	-0.08777297
125	0x3dac0e1d	0.084011294
126	0x3db457fd	0.08805845
127	0x3d894319	0.06702251
128	0xbd18a089	-0.037262473
129	0x3cf7dbdc	0.030256204
130	0xbb94d077	-0.0045414525
131	0x3da28f6d	0.079375125
132	0xbdfccefe	-0.12344168
133	0xbd9de04f	-0.07708799
134	0xbd8aba8b	-0.067738615
135	0xbc8c1634	-0.017100431
136	0x3d513c54	0.051082924
137	0x3cfda176	0.03096078
138	0x3d07ae68	0.03312531
139	0x3d70b2a7	0.058764126
140	0x3d90a641	0.070629604
141	0x3bfc3bf1	0.0076975753
142	0x3dac7c65	0.08422164
143	0x3d9aa564	0.07551077
144	0x3d5b3617	0.05351838
145	0x3b0d3864	0.0021548504
146	0xbda37d77	-0.07982915
147	0x3d15d562	0.03658045
148	0xbdb4efb4	-0.08834782
149	0x3dde18e7	0.108445935
150	0xbd866188	-0.06561571
151	0xbd9509bc	-0.07277247
152	0xbcebc713	-0.02878145
153	0x3e1d9ce6	0.15391883
154	0xbd5c41c8	-0.05377367
155	0xbd73a542	-0.059483774
156	0x3d414ba9	0.047191296
157	0x3db87328	0.09006339
158	0xbdc68629	-0.09693558
159	0x3d1bbd46	0.038022302
160	0x3dc77d2e	0.09740673
161	0xbda4875d	-0.08033631
162	0xbd937f5a	-0.07202025
163	0xbd853722	-0.065046564
164	0xbd23d9fe	-0.040002815
165	0xbd06e576	-0.032933675
166	0x3c2196b8	0.009862594
167	0xbd630c12	-0.055431433
168	0xbcf0ce93	-0.029395377
169	0xbd585531	-0.05281562
170	0xbccd000e	-0.02502444
171	0xbd1a573c	-0.03768085
172	0xbc023df4	-0.007949341
173	0xbdf31407	-0.11869054
174	0x3d78ce7c	0.060743794
175	0xbe04e5a4	-0.12978226
176	0xbcbee426	-0.023302149
177	0x3d8d1a3c	0.068897694
178	0x3d8d84b6	0.06910078
179	0xbd934902	-0.071916595
180	0xbd81f69e	-0.063458666
181	0xbd52983f	-0.051414724
182	0xbdfce85a	-0.12349005
183	0xbd3ebd6d	-0.04656737
184	0x3d71b0a8	0.059006363
185	0x3d8b1d7b	0.06792732
186	0xbd97e834	-0.07417336
187	0xbc1236cd	-0.008924198
188	0xbdd6a7b8	-0.104812086
189	0x3c3001cf	0.010742619
190	0xbd6dbc61	-0.05804098
191	0x3c21b164	0.009868953
192	0x3df02c7a	0.11727233
193	0x3dbf5ac9	0.09343488
194	0x3e5b46c7	0.21413718
195	0x3c8e9824	0.01740653
196	0xbd11c0ff	-0.035584446
197	0x3e3a6927	0.18204175
198	0x3dd7a8cf	0.105302446
199	0x3e45d08b	0.19317834
200	0x3e41ea6c	0.18937081
201	0xbaf3697d	-0.0018570867
202	0xbda3d47f	-0.07999515
203	0x3e3e577d	0.18588062
204	0x3e26bc9d	0.16282888
205	0x3dbcc7ff	0.09217834
206	0x3de3d859	0.111252494
207	0x3db6fcb6	0.089349195
208	0xbd3bc294	-0.04583986
209	0x3e8f0f85	0.27941528
210	0x3e2705ac	0.16310757
211	0xbdcbb3a0	-0.0994637
212	0x3da53bf9	0.080680795
213	0x3e66c61d	0.22536512
214	0xbdecb112	-0.11557211
215	0x3de15a85	0.11003593
216	0xbd4e49de	-0.050363414
217	0xbbe8bef8	-0.0071028434
218	0x3d130838	0.03589651
219	0xbd8d2daf	-0.06893479
220	0x3d2148f6	0.03937622
221	0xbc7673d1	-0.015042261
222	0x3d4fc050	0.050720513
223	0xbe0381e1	-0.12842514
224	0xbd522184	-0.051301494
225	0x3e0d02fa	0.13770667
226	0x3e547c94	0.20750648
227	0x3e6ee769	0.23330463
228	0xbc7d0757	-0.0154436445
229	0x3d6bad20	0.05753815
230	0x3df1d639	0.11808438
231	0xbcda268b	-0.026629707
232	0x3e72b13c	0.23700422
233	0x3997ac3c	0.0002892929
234	0x3dc2c14d	0.095095254
235	0x3d4919fb	0.049097043
236	0x3e1b6af8	0.15177524
237	0xbddcf0f3	-0.10788145
238	0x3d482574	0.048863843
239	0x3dcb4784	0.0992575
240	0x3e2b4729	0.16726364
241	0xbc65b8e8	-0.014021136
242	0xbd3578ce	-0.04430466
243	0x3e171b90	0.14756608
244	0x3e4250ea	0.18976179
245	0xbd8187dd	-0.06324742
246	0xbba847f3	-0.00513553
247	0xbb3ebe7a	-0.0029105232
248	0xbb9d019e	-0.0047914525
249	0x3d8b32d9	0.06796808
250	0x3cd6ecf1	0.02623603
251	0x3dc24fd6	0.09487884
252	0xbcb5a1be	-0.022171851
253	0x3d15149b	0.036396604
254	0x3d0f49d9	0.034982536
255	0x3de9d3ba	0.11417337

bias f4 [64]
0	0xbdf8dc18	-0.121513546
1	0x3df3fac5	0.11913065
2	0x3e0fbb94	0.14036399
3	0x3cb9a3fb	0.0226612
4	0x3e03a2ec	0.12855119
5	0x3d96921a	0.073520854
6	0xbdfbdd03	-0.12298014
7	0x3dd87904	0.10569957
8	0xbd15a9d2	-0.036538906
9	0x3da6c03a	0.08142133
10	0x3d3d3053	0.046188664
11	0x3e3a1df2	0.18175486
12	0x3e50f3b6	0.20405468
13	0x3dc65ac2	0.096852794
14	0x3cf9c169	0.030487733
15	0x3d59ade9	0.05314437
16	0xbdec9ebe	-0.11553715
17	0xbdd70f6c	-0.10500988
18	0x3dbb5f89	0.09149081
19	0x3d3a4268	0.045473486
20	0xbcf54224	-0.029938765
21	0x3e2614e0	0.162189
22	0xbdf13c82	-0.11779119
23	0x3e3768a9	0.17911018
24	0x3ccba07e	0.024856802
25	0x3c67dcf0	0.014151797
26	0xbd07afd3	-0.033126663
27	0xbd8f2d6a	-0.06991084
28	0xbd813ab2	-0.06310023
29	0xbd756655	-0.059912045
30	0x3e6a80a9	0.22900642
31	0x3db6fcbb	0.08934923
32	0x3dba1f00	0.09087944
33	0x3dfbc6b4	0.12293759
34	0x3d862576	0.06550114
35	0x3df49ef0	0.119443774
36	0x3e8e1823	0.2775279
37	0x3d323178	0.04350421
38	0x3de7ff4d	0.11327992
39	0xbdc266d9	-0.09492273
40	0xbdd40716	-0.10352914
41	0x3d36852f	0.044560608
42	0x3e443bdc	0.1916346
43	0xbc2d28bd	-0.010568795
44	0xbbbb8eaa	-0.005723794
45	0x3ca03040	0.019554257
46	0x3c47fad0	0.012205794
47	0xbde855a6	-0.11344461
48	0xbcc7cc83	-0.024389511
49	0x3d434c36	0.047680102
50	0x3e011225	0.12604578
51	0xbd811e54	-0.06304613
52	0xbd54d493	-0.05196054
53	0x3c5f3d7b	0.013625498
54	0xbd4a2017	-0.04934701
55	0x3e50fe4a	0.20409504
56	0x3d2e2eb6	0.042525016
57	0x3dba098a	0.09083851
58	0xbe0eb37d	-0.13935657
59	0x3c95a3f9	0.018266665
60	0xbc440299	-0.01196351
61	0x39adf16b	0.00033177002
62	0x3d029b58	0.03188643
63	0x3d8bd2e5	0.06827334
